network/dnn_01/BiasNet_tdoa.pkl (torch, 22519 bytes, 8 tensors)

weight f8 [30, 14]
000000 8b 77 15 22 01 1c d4 bf 4f 7b 04 31 34 97 d4 3f
       -0.314209254536643 0.3217287520109737
000010 ee df 2d a5 1d 3c c7 3f e1 82 97 27 f7 94 bb 3f
       0.18152208867445502 0.1077417823467033
000020 63 ce 53 f7 ee 9d 95 bf 66 2f ab 4a 85 f4 dd bf
       -0.02111028084341483 -0.468049357336659
000030 dd 6a 61 5c 03 37 c1 3f 59 1e 67 2f 75 3a b2 3f
       0.13449136744278337 0.07120449454588974
000040 42 e8 5c e3 27 de d2 3f a2 00 8b 69 5b 69 b8 bf
       0.29480931476030403 -0.09535762144787666
000050 71 7c b1 1b da eb cd 3f a7 6b 1d 10 f4 1a c7 bf
       0.23376013138019716 -0.1805100516019966
000060 3f 47 dc 8d 4d 6a 81 3f 79 05 f9 09 98 16 bb 3f
       0.008503538028466926 0.10581350558734028
000070 b4 30 81 4d 55 7f d8 3f 7a 07 5b 7e 51 d4 cb bf
       0.38277180260480326 -0.21741694135385697
000080 e2 b4 0d 6e 2c 66 c9 3f f5 6d 3f 90 db ae e1 bf
       0.19843058942516395 -0.5525949303950585
000090 a9 5d 1b e2 cc 24 c0 bf 1e ee 36 e6 bf d1 b3 3f
       -0.1261230567967975 0.07741927500222132
0000a0 0e 27 3a 63 e8 47 9c bf 1f 0c 70 90 02 98 c6 3f
       -0.02761805635103714 0.1765139775526174
0000b0 25 23 bd 49 ed f4 89 3f d7 90 9f 93 71 1f a6 bf
       0.012674192250089764 -0.043208646078512984
0000c0 32 77 5b 8a 5d e9 c9 3f 9f be c7 b9 ff f6 83 3f
       0.20243424659468584 0.009748456818641059
0000d0 54 92 b4 d4 69 56 95 bf 47 0f 33 b0 21 3d dd bf
       -0.020837453467850445 -0.4568561764428875
0000e0 b1 17 9f 3b 63 84 c3 3f 05 e2 1a a1 c7 86 b4 bf
       0.15247764979556913 -0.08018157656886878
0000f0 42 a1 a0 a2 bd 0d d3 bf dd 5a d5 cd d5 50 a1 3f
       -0.2977136696013255 0.033819848419332145
000100 ef f1 46 bc 14 95 b6 3f f2 4d 75 36 ad e4 da 3f
       0.08821229549989316 0.4202073127573548
000110 bd 05 7a 60 82 44 de bf eb c8 27 51 33 4e c8 bf
       -0.4729314748911653 -0.18988648855844956
000120 12 cf 5d 80 3b 12 d5 3f be 2f da 30 af 4b d3 3f
       0.3292378190592312 0.3014944054673342
000130 60 93 5f 07 6d 84 d0 3f cd 4a a3 59 ac 9d be bf
       0.2580826351170824 -0.11959340275215453
000140 1c de 24 b3 72 2d a2 bf 9a 05 65 c6 79 e7 c1 bf
       -0.035502991073766504 -0.13987657725560326
000150 b7 40 53 2d 8f f4 b9 bf 86 eb 29 a3 75 30 b9 bf
       -0.10138792854854982 -0.09839568360795967
000160 83 59 83 45 c6 74 d2 3f 66 a1 f4 7e 52 dd c5 3f
       0.288377349742767 0.17081671904567058
000170 0e b1 51 66 05 ee bf bf 31 6c 67 9e cc fb d1 bf
       -0.12472566364312263 -0.2809936091341028
000180 7d 1e 7b b6 ae 55 e2 bf da 1c 2c 9c 95 76 cb bf
       -0.5729592861252538 -0.21455640912629442
000190 74 9f 26 b7 ae 3e c5 bf 1e 29 c5 15 7b a4 c5 bf
       -0.165975417546402 -0.16908205569263485
0001a0 b6 04 b9 95 21 10 dd 3f 4e 42 53 a6 9d ef c0 3f
       0.454109569753267 0.1323124944815554
0001b0 36 ba 24 97 0e 42 c3 3f ab a7 d4 d6 ff 42 c0 3f
       0.15045339946796482 0.12704465856341804
0001c0 60 02 9a e4 e9 20 83 bf 26 48 07 d1 ac 0c d6 3f
       -0.009340121544711255 0.3445236245435147
0001d0 c1 83 90 bf 73 5d c9 3f dd 63 48 08 62 d3 67 bf
       0.19816443303809986 -0.002908412427370595
0001e0 e3 cf 18 36 3e f2 c0 3f 7f 7c 8d 49 29 6a 55 bf
       0.13239267007304453 -0.0013070491024434192
0001f0 1d b9 16 ae 61 ff 7e bf 74 e5 ab 19 cd 33 8c 3f
       -0.007567769587167453 0.013770677896433915
000200 d8 2e be b6 b3 10 e5 bf 65 84 a0 6f 23 36 9b bf
       -0.6582888192364988 -0.026573709190533274
000210 a1 f4 22 8d 16 d4 c8 bf 1e ed 2f 58 79 47 c2 3f
       -0.19397241488869546 0.14280621343628125
000220 0b 84 8b 16 7e 9c cc 3f f3 dd 34 5f f9 d4 c5 3f
       0.22352577305630947 0.17056195400958493
000230 ad 45 a7 dd 6d f5 c4 3f 47 40 81 18 8c 2e b0 3f
       0.16373990366859684 0.06321025465263218
000240 97 c4 cb fe 52 0e a1 bf 3e 29 45 c9 e0 41 cb 3f
       -0.03331240997602796 0.21294793918270644
000250 69 9f 07 49 66 62 ce 3f e1 32 05 42 e9 92 92 bf
       0.23737791601092376 -0.018138546614227095
000260 ee c5 ae df 89 91 c5 bf 7e 82 e0 f9 9f ab c2 3f
       -0.16850398466117106 0.14586257649445494
000270 cd df 21 2c 37 79 c3 3f f3 d2 48 d6 81 58 ca 3f
       0.15213670401476379 0.20582602465733366
000280 72 2c f1 bb 73 69 cb bf 91 7b 8f 33 1b d5 c5 3f
       -0.21415564228877632 0.170565986801162
000290 1d c7 77 b6 4d 99 32 3f c3 f2 0f ec 16 c8 d8 bf
       0.000283795807688768 -0.3872124963088874
0002a0 9f 79 f5 ef 12 cb d8 bf b4 54 53 cc fe 71 cb 3f
       -0.3873946517323023 0.21441636063415148
0002b0 90 fd 0c ed f1 25 bf bf e6 0f 8b 13 f5 f4 d6 3f
       -0.12167274510738069 0.3587010088779138
0002c0 90 31 5f a8 a2 f3 60 bf 37 40 9e 85 58 60 9c 3f
       -0.002069299403023979 0.027711280017286035
0002d0 35 41 22 59 cb 81 ba bf 57 6f b4 f5 b6 e6 9b 3f
       -0.10354300428503367 0.027247294184334105
0002e0 61 c0 96 2e db 7e b1 bf 3d 1f 0f d1 83 f8 be 3f
       -0.06834192168639809 0.1209795365713235
0002f0 6d 2e 59 cc 08 62 d4 bf c5 94 11 04 15 52 b3 3f
       -0.3184835429753779 0.0754712233479778
000300 e9 33 ff 20 67 c0 cb bf 8b 39 df 8f ed 04 d6 3f
       -0.21680916892219607 0.34405077981946225
000310 10 3d ed 51 cc d5 be 3f d5 ff c7 83 ca c8 b3 bf
       0.120449800492896 -0.07728257863345729
000320 bd 58 9b cd e7 cb b9 bf 3a 44 6a 6f 6b e5 91 bf
       -0.1007676007241995 -0.017476729083288435
000330 5c a1 83 21 a8 40 b9 3f 0f cf 8e 70 c3 bf ab bf
       0.09864283388345058 -0.05419741391179233
000340 b8 06 94 08 9a 2a a3 3f ad c8 40 9e f9 45 7b bf
       0.03743440012659732 -0.006658530303001492
000350 4b e1 9a a8 27 d1 81 3f 49 3e 90 b9 2c be c2 bf
       0.008699712593952432 -0.14642867146220542
000360 55 4f cf a7 cf 29 c4 bf 69 8c 4e 34 62 59 c0 3f
       -0.1575259751685915 0.12772777132076676
000370 0d b6 fa df 6f d5 be bf 96 c7 9a 97 aa 5a c1 bf
       -0.12044429033513655 -0.13557941820687053
000380 cc 27 5c 93 06 a5 b3 bf 69 b9 7d b3 81 83 c6 3f
       -0.07673684213310067 0.17588826431478857
000390 f0 b8 37 d3 9e 99 a6 3f 3c 62 6c 96 46 b4 c7 bf
       0.04414078071919103 -0.1851890787591105
0003a0 cf 63 44 72 da 0f d4 3f 1c 80 78 62 82 e7 c6 3f
       0.31346760901356857 0.17894010360851176
0003b0 4b 39 4f 8d eb af d3 3f ea 82 41 29 d4 b1 c4 3f
       0.3076123123145364 0.16167690290878706
0003c0 ec 50 69 7f 34 cc d1 3f 95 de 06 70 89 ac a0 bf
       0.278088688302218 -0.03256635181918203
0003d0 96 99 76 d0 bb b4 d0 bf f0 4b 77 0b 2b da a9 bf
       -0.2610311065458516 -0.05049261584249354
0003e0 ec e4 79 cd 57 78 67 bf b7 8a 01 2c e3 38 9c 3f
       -0.0028650011916481113 0.02756075817195366
0003f0 87 50 da 29 12 74 c2 bf 90 fd 5e c8 d4 cb c6 bf
       -0.14416720431893656 -0.1780954340338039
000400 59 e5 7a 34 b3 12 d1 3f 77 85 26 3b ad 79 c0 3f
       0.2667663586140257 0.12871327770430316
000410 db 29 b5 00 9b a3 b8 3f 28 76 d6 12 7f 02 d4 bf
       0.09624642150189493 -0.3126523670160588
000420 92 d2 b0 81 ca 77 d0 3f 39 af 89 48 26 8e c4 bf
       0.2573114649306173 -0.1605880598248122
000430 31 8f 42 72 e8 c9 b4 bf ff 8c 7f ed 91 6a bb 3f
       -0.08120587148237914 0.10709487961098672
000440 c6 f6 1c 01 ce 3f de 3f 71 1e c2 d8 b4 cd d4 3f
       0.47264433010773776 0.3250553242473649
000450 fd d0 dc 5a 1f 80 ae bf f6 27 de 83 06 c9 b4 bf
       -0.05957124694978864 -0.08119240493229526
000460 fe 72 86 ca 73 8f cc bf 18 3c af 5c 5c 79 c2 bf
       -0.22312781704831502 -0.14432863736735224
000470 23 0e 54 81 c9 99 b6 3f 66 fd ce 7d c7 e8 d0 bf
       0.08828410537176316 -0.2642077187155877
000480 3b 13 13 db bf f1 c0 3f 97 04 d6 92 99 15 bc 3f
       0.13237760731694856 0.10970458826888528
000490 a7 66 4a e2 18 9c af bf 09 7d 24 15 37 18 d6 bf
       -0.06173780214630869 -0.34522797646236875
0004a0 f9 4e be d4 90 c0 d3 3f 31 bc d6 c6 2a 51 cc 3f
       0.3086282804081147 0.22122702320982193
0004b0 8f e0 19 94 09 86 b1 3f e3 70 16 0a fa 9f d5 3f
       0.0684514986586484 0.3378892038833909
0004c0 d2 95 44 97 85 4e cf bf 1a 5f 11 be 9d ef d3 3f
       -0.24458379636887045 0.31150001107515524
0004d0 89 60 15 71 6d bb 97 bf 1e 09 6a 6f 01 46 cd 3f
       -0.023175916697568275 0.2286989015593201
0004e0 14 42 b4 44 8e 31 d0 3f a9 7d d1 93 02 77 c8 3f
       0.2530246420801927 0.191131899048725
0004f0 c8 db 47 15 f4 32 d5 bf 38 26 5b 55 70 ae d1 3f
       -0.3312349517649946 0.2762718995623774
000500 d2 97 dd 26 3d 3d c0 3f cb b5 46 7e d8 fd c4 bf
       0.12686886213049192 -0.16399675527411114
000510 81 4e 1e ef ad 77 c5 3f 2b 73 fc 68 9c fb b5 bf
       0.16771482635214244 -0.08587052882326122
000520 00 34 9e 04 ec 21 85 3f 08 fb 2c d0 e9 93 a1 3f
       0.010318607226304621 0.03433161417205183
000530 96 ee d4 4d 4e fc c1 3f 02 ac 00 d5 f9 c1 c2 3f
       0.1405122642553251 0.14654467487829953
000540 6e b8 eb c1 9b 52 b6 3f 25 fa 70 fa 2d 43 c2 bf
       0.08719800457376589 -0.1426751587732308
000550 85 28 62 87 0b 59 d5 3f e9 7a 61 56 b1 c0 80 3f
       0.33355987759626543 0.008180032204277281
000560 bf fd 8e a7 86 d9 c9 bf 4c f7 5e 73 7b 94 c2 bf
       -0.20195086652345925 -0.14515631802890494
000570 79 79 d5 5b c4 d0 bd bf 55 9d 44 0e 7f 77 da 3f
       -0.11646678201711848 0.4135434760414303
000580 27 88 69 c9 31 a4 b6 bf 3c 60 5e 1c 5a 64 95 3f
       -0.08844290892878402 0.02089062498234305
000590 00 98 f4 71 17 4f ad bf aa 48 14 2f cb cc a1 3f
       -0.05724404588754339 0.03476557683656385
0005a0 41 ba 13 1c be f9 cd 3f 4c 35 fc 25 ed 35 82 3f
       0.2341840397925399 0.008891918870655012
0005b0 e8 af db f2 38 7e b8 3f 10 4f 4e 13 58 8b c2 3f
       0.09567600182680247 0.14487744276686287
0005c0 52 49 3b f9 83 0b a6 3f b7 e8 47 48 8a de c7 bf
       0.04305660645845201 -0.18647888688412248
0005d0 81 7b ff d9 6e 68 d2 3f 6a 8f 26 58 3e 89 9d 3f
       0.28762408532013956 0.02884385502842638
0005e0 7d e1 18 e2 75 40 96 3f 9b 30 14 d0 ca f9 c1 3f
       0.02173027222144829 0.14043555412388717
0005f0 cc 2b 9b 85 29 b0 c8 3f 3b 38 d0 e8 a3 72 83 bf
       0.19287604354607735 -0.009496002714538423
000600 62 1e 0e 1f 1a c2 be bf 86 4d 8f c4 cb 27 dc bf
       -0.12014926202947998 -0.4399289531258649
000610 70 b4 3e fa 50 15 c8 bf 28 5a 8d dc a9 ff b2 bf
       -0.18815052241317032 -0.0742136157472052
000620 a4 a1 58 68 e6 b2 b9 bf 57 12 3c 31 7b 53 a4 3f
       -0.10038604781642008 0.039699411163415625
000630 b6 ee 97 1b a9 9b a1 3f 19 ea 51 80 d6 fe c5 bf
       0.034390720957131846 -0.17183953538536015
000640 4a fd 59 98 03 1d b9 bf c5 7d 5d 56 fc c1 c0 bf
       -0.09809896916884955 -0.13091997353602217
000650 0e 5f af b7 ec 19 c0 bf 1a 4e a3 b4 df f9 90 3f
       -0.1257911583804731 0.016578193092597095
000660 f8 cf 2e 11 86 70 d6 bf 18 30 6e 3f 3b 9e ca 3f
       -0.3506179015923858 0.20795384022892516
000670 6a 71 a5 ed 77 8e 93 3f 8f ad f5 38 74 8f d1 3f
       0.019098161582733843 0.2743807369467612
000680 bd c9 1f 5f bf 4b c6 3f bc 49 19 ca d4 58 bd bf
       0.1741866316293236 -0.11463670667698173
000690 8d ea 9e a6 8a cd b2 bf 49 e1 70 bf f1 f9 d1 3f
       -0.0734488159932118 0.28088039107708035
0006a0 56 fb fd 28 ae 0e bf bf ee 4f 66 c9 96 f6 c7 bf
       -0.12131775379928675 -0.18721279939620622
0006b0 5f 2d 8b b3 6d a3 67 bf c8 45 48 ce 6c 2a d2 bf
       -0.0028855459789604433 -0.28383941788441946
0006c0 b3 83 31 c1 f6 b9 cf 3f c3 92 a9 fd 7e 45 a6 bf
       0.2478626674010492 -0.043498962845466525
0006d0 2a 29 f7 b5 2d 35 d3 3f d6 fa bf 73 b5 78 bf 3f
       0.3001207615858613 0.122935620078333
0006e0 0c d9 7b 04 ab 64 c7 3f 40 68 5c c6 d3 78 d1 bf
       0.18275964468893624 -0.27299970980823574
0006f0 6f 89 81 47 08 b2 a4 bf f3 f8 18 d7 83 d8 b4 3f
       -0.04042077896953599 0.08142875672726628
000700 d3 66 e2 ba b7 4b c3 bf 75 23 ea 82 1f 63 bc 3f
       -0.15074822068418445 0.11088749834210694
000710 ba 12 69 78 db 89 b0 3f 6d 6b 97 57 34 aa cf 3f
       0.06460353555400902 0.24738172795226934
000720 3e 82 61 33 fe c0 b6 3f ef 06 6f a3 d8 85 be bf
       0.08888233904281947 -0.11922983160095744
000730 ee a3 ff 36 eb 82 e4 3f fe b1 d1 4c e8 fe c2 bf
       0.6409812998000441 -0.1484041571706171
000740 b6 de 66 36 d8 3f e0 3f d8 e6 51 29 75 58 c8 bf
       0.5077935278449874 -0.1901995136029686
000750 0d 9f 03 3e 0f ae d7 bf 41 fd 2d 9a 11 d0 bf bf
       -0.36999875122136033 -0.1242686273017073
000760 1f 56 3d b0 8c 27 d8 3f ae fe 9f 99 c7 82 d2 bf
       0.3774139138307379 -0.289232158684153
000770 9a 32 e1 a3 a7 c0 ca 3f d2 7f 0b 0e c4 ac d3 3f
       0.20900435926377697 0.30741978999685415
000780 d0 db 74 81 f3 b2 c6 bf a8 73 86 b0 52 07 c2 3f
       -0.17733615704648154 0.1408484804095711
000790 13 d1 98 f4 49 16 cb bf cd a3 8d 8c a6 8a bf bf
       -0.21161770289621326 -0.12320938998676852
0007a0 d4 3d 51 c8 7d 48 8a bf da 40 e5 7d 37 fc c4 bf
       -0.012833578754139298 -0.16394704482309558
0007b0 06 4b c1 bc cb 46 c6 3f 67 c4 eb 6a 5c bb bf 3f
       0.17403551785044885 0.12395265207648408
0007c0 d1 96 85 bf 52 43 b2 bf 2f 2f c9 98 99 d3 d3 3f
       -0.07133977104021062 0.30979003830428814
0007d0 30 04 e4 eb ea 89 ae 3f 6a c8 69 05 cb 52 df bf
       0.059645978255510435 -0.4894282868255063
0007e0 25 18 a4 28 83 c5 b4 3f a0 81 dc 1d 6e a4 89 bf
       0.08113879911624673 -0.012520656858726664
0007f0 60 22 4c 80 ad 10 b9 bf 5e ab b5 a8 6c b7 b2 3f
       -0.09791073210011225 0.07311133498084874

bias f8 [30]
000000 ea 7a 9e 02 63 4d bd bf f2 9e 1c 17 51 a4 c0 3f
       -0.11446207822744339 0.1300145495272243
000010 86 2a b4 99 b3 fb b2 3f 7a 85 1e 11 1a 1b b6 3f
       0.0741531610730509 0.08635104101133165
000020 79 d5 e8 f8 b8 b9 c2 3f d7 74 6a 26 6f 59 bf bf
       0.14629280236992395 -0.12245840728651856
000030 8d c3 d3 cb f0 14 ce bf 42 6a 42 c4 15 af 5f bf
       -0.23501405670642975 -0.0019338333668545015
000040 22 82 73 e1 9a 39 a1 bf 38 1d 02 f3 af 67 d1 bf
       -0.033642616291903474 -0.2719535706641696
000050 a8 e3 ad 70 d6 c0 b7 3f 80 63 39 79 68 c6 c4 bf
       0.0927862191291654 -0.16230493468426843
000060 7d 28 70 e4 17 77 b2 bf f4 f9 41 41 e1 da 99 3f
       -0.07212971999266134 0.025249023063674117
000070 c0 7a a2 58 78 a3 98 bf 87 03 90 55 a9 0d bb bf
       -0.024061088952857856 -0.10567720736436402
000080 a7 54 c1 96 fc 08 d0 bf 0c 48 ca 04 ea 8b a2 3f
       -0.2505485031336527 0.036223710140930704
000090 78 34 4c 68 2c a7 85 bf c2 2a ae 7e 7a 8d b9 3f
       -0.01057276433268782 0.09981504051954018
0000a0 1e f7 f7 1e 6f c2 a0 bf d2 68 ad e0 da cd b5 bf
       -0.03273341420206875 -0.0851723478821527
0000b0 bc e9 17 d2 ff f9 b8 bf 80 44 39 49 3b c3 c4 3f
       -0.09756468657716416 0.1622079951799016
0000c0 00 00 00 00 00 00 00 00 86 39 9b 6d 42 49 c3 3f
       0.0 0.15067320205566775
0000d0 bb 09 57 60 c0 aa d1 bf 00 00 00 00 00 00 00 00
       -0.2760468426532971 0.0
0000e0 06 a7 34 3a 28 e8 96 3f 00 00 00 00 00 00 00 00
       0.022369984200088865 0.0

weight f8 [30, 30]
000000 55 b6 8f 1f 46 b1 d6 bf 1a 85 bd 3e 20 66 d2 3f
       -0.354569941350609 0.28748327376350036
000010 72 dd 14 c3 fe b2 c8 3f 55 27 c9 29 8d 62 cd 3f
       0.19296249890770018 0.22957005062408578
000020 f1 dd ba 27 a3 30 c7 3f 64 6c 71 43 c8 d8 c6 bf
       0.181171793364896 -0.17849067013853237
000030 9d 97 ab d9 ed 81 8e bf 4d 6a a9 8c bc 33 b6 3f
       -0.014896257596273272 0.08672693666577765
000040 b3 87 27 12 6f d2 a8 3f f4 0a 39 e2 27 01 cb bf
       0.048480483022799524 -0.21097277208362863
000050 89 3c d3 49 f5 e4 a0 3f ac af de e4 59 96 cc bf
       0.0329968121164877 -0.2233383529213574
000060 47 69 1a af 69 c0 bc bf 88 cd 37 19 f3 a4 bc 3f
       -0.11231098675708494 0.11189193120644891
000070 fb fc 07 9d e1 13 bb 3f 0b 10 2e da 69 9e a1 bf
       0.10577211459893825 -0.03441172397927524
000080 c5 aa 77 84 1b 37 d5 3f 43 b6 83 c4 6d f9 b2 bf
       0.33148849426531185 -0.0741184811374405
000090 40 a0 7c b4 33 36 aa bf 97 12 fd 8f 2f d1 af bf
       -0.051194778234560534 -0.062142835928658595
0000a0 e4 f1 2e 3d 83 52 9b bf f3 ff 43 ab 66 75 d5 3f
       -0.02668194828923899 0.33529059147986046
0000b0 73 57 0d 01 ce b5 b5 3f bd eb d0 e8 15 7d 99 bf
       0.08480536962210099 -0.02489122613426863
0000c0 b9 f3 d1 37 e6 e4 9e 3f f4 a5 50 9a 42 69 b3 3f
       0.030170056492796003 0.07582489268738596
0000d0 08 c5 8f 21 6f 2f d2 bf 0d b4 58 6b 3e 83 bd bf
       -0.2841451480627062 -0.11528387184871765
0000e0 cf 57 f3 40 68 d8 98 bf b8 20 1a 43 ed e3 25 bf
       -0.02426302811075925 -0.00016701003328401464
0000f0 c8 61 09 8b 70 80 c6 bf 7e 97 e9 9c 8f 0c c0 bf
       -0.1757946661844143 -0.12538333093396753
000100 12 88 32 65 07 29 c8 3f 2e c9 91 64 55 c8 cb 3f
       0.18875210229185818 0.21705119524592348
000110 b1 2f 9e c3 0a 4c cc bf ea a8 2e 33 fa 81 94 3f
       -0.22107061912208573 0.02002707421676401
000120 fe 30 cb 25 55 f5 b1 3f 8d e2 28 33 32 29 b7 3f
       0.0701497285146537 0.09047235249534875
000130 ad 2d 1b 16 d0 5a 8a 3f 7b dc bf fc 78 39 9f 3f
       0.012868524241091384 0.030492678095438635
000140 37 8b 3c 54 27 28 b1 3f 6f aa 33 09 74 cb 9c bf
       0.06701894575648458 -0.028119862615236742
000150 08 dc d6 3f d7 53 ad bf 55 1a 89 47 12 fd a7 bf
       -0.05728027967727917 -0.04685265658604424
000160 cd 31 c8 2d a4 da ad 3f 0f c8 47 ac e9 73 a9 3f
       0.0583087259184115 0.049712469368287875
000170 94 a3 8e 95 21 93 d0 bf 8a e7 fd f3 8b 59 c6 bf
       -0.25898017506784154 -0.17460774816191488
000180 28 cd 8a bd a9 de c2 bf 1c 03 31 52 74 9c ac bf
       -0.14742013697614564 -0.055881152184616506
000190 b6 27 ad 5a f3 e4 84 3f 8c 43 4b 91 3a 16 ac bf
       0.010202313618396502 -0.05485709212883369
0001a0 3d 69 29 c7 e3 1f cd 3f fb 81 5a 7f 88 73 a6 3f
       0.22753569817252553 0.0438501983128425
0001b0 55 13 cd 85 fa 22 a8 3f 68 98 92 11 0d af c4 3f
       0.047141865571154774 0.1615921340755364
0001c0 52 bf 09 db 06 9d c3 bf fe 63 e1 40 24 fd bb 3f
       -0.15322957701891454 0.10933138450617716
0001d0 b6 69 82 30 2f f4 9c 3f 87 18 e6 36 8c 09 93 bf
       0.028275239311008803 -0.018591109133489183
0001e0 fb 7b f9 92 66 65 b2 3f 81 66 a7 6c f3 7f 77 3f
       0.07185975158925821 0.005737257839848576
0001f0 5e cc c8 e2 f4 67 cc 3f a3 6a d2 3c ab bf 84 3f
       0.22192250321822632 0.010131204408300681
000200 ff b5 47 5c 05 fa d1 bf 0c 13 e6 75 7f 0d ba 3f
       -0.2808850670979552 0.10176846149813573
000210 bb f0 1c ea 11 44 d3 bf a9 da c3 92 de e1 76 3f
       -0.3010296617756116 0.005586499621350307
000220 48 c1 dd 45 3b 86 cd 3f 13 37 f0 f0 d1 a8 c3 3f
       0.23065892135083232 0.15358948006217385
000230 37 96 41 63 14 b5 cb 3f b4 24 56 d0 9f 15 b8 3f
       0.2164636120461851 0.09407996021595261
000240 af f1 09 d5 f7 d3 c8 bf 68 ba e7 e5 6a ec 83 3f
       -0.1939687528828364 0.009728274480008639
000250 f2 e2 20 cb fd b7 c7 3f 19 f3 e7 aa e9 be 8c bf
       0.18530247133619288 -0.014036012199534252
000260 80 26 e9 45 69 74 ca bf 6d 54 02 30 34 ea c3 bf
       -0.20667758859262975 -0.1555848345202863
000270 13 a3 2c c5 9e 19 bf 3f 49 32 55 74 36 5f cf 3f
       0.12148468316867093 0.24509316139519147
000280 e7 27 0c 9f 4e f6 b0 bf fe eb 89 40 9e ca a6 bf
       -0.06625834830279552 -0.044514603975549946
000290 5c 69 12 92 fe 9a c5 bf c6 31 fa 28 ea 98 d8 bf
       -0.16879255421083428 -0.3843331718606148
0002a0 a3 f7 50 2f cb 3d b5 bf 2f 90 b0 48 54 6e c0 bf
       -0.08297414689238151 -0.12836698102285157
0002b0 45 c7 d4 03 88 31 b1 bf d0 db 1d ab c0 10 b5 3f
       -0.06716203778776471 0.08228687455799322
0002c0 f5 de 62 39 7c 3e bb 3f 3e 36 a9 9f 70 b3 b1 bf
       0.10642219925909642 -0.069144286136372
0002d0 91 ff 20 0e bf cf d2 bf b6 8e f5 f1 9f e1 bc 3f
       -0.2939298284509216 0.11281776101310012
0002e0 09 4f c4 61 58 50 ad bf c9 f2 4b f2 ed 82 7a bf
       -0.05725361054842721 -0.006472520330814199
0002f0 d9 04 c0 99 63 63 c4 bf c2 9e a5 c4 28 2b b8 3f
       -0.1592831135494979 0.09440855790091532
000300 0a 02 17 77 2f 28 99 3f 1f b2 26 26 7f 8e bc 3f
       0.024567357677144165 0.11154932671951955
000310 f3 9a e0 a5 23 8c b2 3f ff f3 cc ef 6f 2c bb bf
       0.07245085525265064 -0.10614680866724767
000320 6c 93 04 2f c2 b1 cf bf 1b 6c 0a f7 4e e2 c3 bf
       -0.2476122598247018 -0.15534388601813096
000330 fd ac ed cd 10 16 bd 3f 0b 24 f0 4b fb 9b c5 3f
       0.11361794498013818 0.16882268150246235
000340 a9 58 04 4b 89 22 b7 bf d9 96 dd 92 de 65 89 3f
       -0.09037073213071047 0.012401331765157607
000350 10 74 27 d9 d8 e8 c1 bf 30 32 8c c7 86 9c d0 bf
       -0.13991842845180757 -0.2595536183078222
000360 4f bf 5f 06 43 f8 b1 bf 3c fa 97 1a af 11 d3 3f
       -0.07019442468276547 0.29795434567487056
000370 9c 2e 60 47 73 68 ba bf 7b 5d 12 df d8 03 ce bf
       -0.10315628521510195 -0.23449240581679107
000380 2b 94 63 86 84 67 83 bf 95 30 b5 6c 94 29 c3 bf
       -0.00947478804705256 -0.14970641429897982
000390 23 fc 32 3d e0 fe 57 bf fb d0 84 7e df 0d c1 bf
       -0.0014645757517397571 -0.13323587110210852
0003a0 07 85 8d 94 8a 80 cf 3f c2 72 20 06 de 2f bb 3f
       0.24611027005725125 0.10619914674357303
0003b0 23 aa 5e 41 4f 6a aa 3f 12 a7 bd b7 73 57 89 3f
       0.05159232781382552 0.012373832745385314
0003c0 88 12 b8 ef ba 95 b3 3f 01 74 a0 d9 c2 ed 91 bf
       0.07650345184817742 -0.01750854924476997
0003d0 96 5a 04 9d d3 ab bc bf 30 f8 a0 c7 4f 1e 99 3f
       -0.11199686606810597 0.02452969222962781
0003e0 26 14 2d e5 29 52 c2 bf ea 8d ab 0d 66 f5 75 3f
       -0.14313243570555406 0.005360983511056608
0003f0 09 4b 96 53 0f 65 8d bf 2d d8 16 f9 6f 1e bb bf
       -0.014352912653327292 -0.10593318778305223
000400 ab f3 2a 2e 2a 8b a6 3f 55 7e dc a6 1b fc c5 3f
       0.04403049291202107 0.17175622603916688
000410 5a e1 b5 8f cf ff ba bf eb 01 f2 d2 88 8a bf bf
       -0.1054658628326072 -0.12320761823685415
000420 bb c8 4f 0d d5 1f b4 3f f2 61 be 3c 60 51 b3 bf
       0.07861072134963625 -0.07546044810295152
000430 5f 8c 6e 8f 79 c5 a1 bf d3 0c 21 2f 2e d8 b8 3f
       -0.03470973850132774 0.0970486512242588
000440 53 51 2b 7c f8 08 d2 3f 4f b6 fb 2f eb 15 c1 3f
       0.2817975246992052 0.13348140566761166
000450 4b c7 76 a5 5a d4 62 bf ef 76 2a a1 88 36 bd bf
       -0.0022985239445113873 -0.1141133683654194
000460 2f 89 21 00 a5 36 ae bf a5 ed 4d f3 55 9e a5 bf
       -0.05901065470313182 -0.042223630857701346
000470 ea e0 75 61 ee c7 b0 3f a1 31 d7 2a e6 87 bb bf
       0.06555070762067641 -0.10754240556634055
000480 9f 17 25 2e 32 09 80 3f 4e 29 94 e0 7d af a8 3f
       0.007830040009718263 0.04821389547767528
000490 0f 13 7a 28 dc 81 b9 3f d5 02 59 be 39 c1 bb bf
       0.0996377562351649 -0.10841713807259208
0004a0 59 6f bb bc 3d 5e bd 3f 2a f6 8d fd d7 2b b1 3f
       0.1147192559978384 0.06707525196358036
0004b0 ee e9 0a 9b 8b 3b c0 3f 88 3f 9e d9 23 fd dc 3f
       0.12681717939797416 0.45295044185422073
0004c0 8d a5 09 5d 43 05 bc bf 91 e0 13 ee 92 4a bd 3f
       -0.10945530911853592 0.11441915810053362
0004d0 f6 c5 3e 60 b0 9e b4 bf 2e 58 70 bd ad 44 c5 3f
       -0.08054640149818923 0.16615840673392895
0004e0 d3 56 ae 11 f4 39 af 3f cc 08 6a fa 99 4d 9e 3f
       0.06098902431328459 0.029592901143140435
0004f0 a5 6d c8 02 7e 23 98 bf f1 5a d1 e8 e7 c6 be 3f
       -0.02357289211259474 0.12022256311443492
000500 97 e0 72 95 66 d3 b0 bf 99 f9 de 4d 36 99 c3 bf
       -0.0657257189622008 -0.153113163016269
000510 23 8e 6d 2a e0 17 c0 3f 38 89 a4 3d 26 72 a9 3f
       0.12572862693478823 0.04969901564097018
000520 91 62 d6 fe c8 f2 cc 3f 01 aa e8 75 d3 65 d3 bf
       0.22615921443209122 -0.30308996691260864
000530 8c 33 e4 8e f5 00 c3 bf b5 99 ab 9c 43 47 c1 3f
       -0.14846677281493859 0.13498730802457506
000540 9f 0e 07 7b 66 a6 bd 3f f6 ed 6b 15 9d ed 94 bf
       0.11582031730272967 -0.020437673981161773
000550 58 0a 16 f5 40 77 bc 3f af 78 d3 39 99 77 ac 3f
       0.11119466765925645 0.05559996443638348
000560 a1 ec d5 e4 d5 c1 9c bf 05 7f fc 5d 75 2f 86 3f
       -0.028083173839587364 0.010832707339033751
000570 be 2f c8 b1 95 f1 af bf b7 ca 6a f8 e1 36 b9 3f
       -0.06239002032461326 0.09849369349357572
000580 5c be 42 6e 6e 02 ba bf d2 a2 09 33 ce 2e a5 3f
       -0.10159959976112404 0.04137272236841273
000590 47 14 b1 e0 5e e7 58 bf ae bd 03 db c8 b3 94 3f
       -0.0015200068035181745 0.020217073791113975
0005a0 2d f3 a8 a3 18 be 7b bf 02 22 0a 51 25 0f a3 bf
       -0.006773086783650223 -0.037224928038146046
0005b0 a8 25 ac 2c b5 c5 bc 3f f5 e7 48 8d 82 fa ac bf
       0.11239178028713204 -0.056598739382437126
0005c0 b9 31 d1 79 ea 6a b8 bf 37 54 70 d8 d6 73 b5 bf
       -0.09538140749027137 -0.08379881652975106
0005d0 b3 36 67 8f 5b bb c9 3f e8 5e 30 e9 17 2d 98 bf
       0.20103020193203278 -0.023609517677043806
0005e0 f5 94 ef bd 68 df af bf 32 8c 91 de 83 af 96 bf
       -0.06225135153344211 -0.022153912028795193
0005f0 bd 17 a9 75 2c cf d3 3f 34 f1 41 cd 24 a7 c4 bf
       0.30951987734112746 -0.1613508226618109
000600 bc 04 0c 43 f2 9a 96 bf d2 c5 55 b6 ec ce b4 bf
       -0.02207544836256113 -0.08128241969622899
000610 f3 a7 4d bc 6d cc c6 bf e0 bb 80 76 ad d1 a0 3f
       -0.17811366743563858 0.03284971305435369
000620 ff ff 59 e7 80 63 b5 3f e2 36 85 f3 16 b9 90 bf
       0.08354955337745194 -0.016331060994437936
000630 6a 04 7b b3 0d 5c 95 3f c1 3f 5e 50 e2 ef c2 bf
       0.020858968810675206 -0.14794567989565446
000640 7f 28 b8 67 0b 7b 70 bf 6e ec 25 68 de 33 b9 bf
       -0.004023594428426701 -0.09844770472220585
000650 13 ce 85 16 d9 89 a1 bf 35 38 63 f4 31 f2 c0 bf
       -0.03425482177672392 -0.13239120896327142
000660 43 d0 09 01 1c 39 b5 bf 57 96 79 48 6f d5 92 3f
       -0.0829026701483722 0.01839231376506797
000670 1f 8d e6 59 30 b4 c1 3f 57 ba 38 4b cc eb 77 bf
       0.1383114279716233 -0.005840108893194604
000680 d3 e0 76 b1 6e 47 b8 3f 19 99 d2 b6 3c 92 ac bf
       0.09483997185350583 -0.055803201024263234
000690 9b 56 93 93 53 05 c6 bf da 2e f8 a4 4b fa d3 3f
       -0.17203755098187376 0.3121518240957194
0006a0 a4 db 3f b1 d3 dc c4 bf 35 e5 4c af 32 cd a2 bf
       -0.16298910288580004 -0.03672178640267491
0006b0 10 eb 7c f1 d9 1b ab 3f 8c 5c 37 16 79 ad b2 3f
       0.05294686386920067 0.07295948784245548
0006c0 20 6e 2d d9 58 06 cd 3f 45 ed 42 a3 8d 16 c1 bf
       0.22675619701736682 -0.1335007712531057
0006d0 6e a3 b0 45 a9 96 d2 3f ed d5 61 de 96 75 d7 3f
       0.29044563108123256 0.3665520831776508
0006e0 86 26 ce cd fa 49 b9 3f 16 0d bf 5b d4 65 c7 bf
       0.09878509068053107 -0.18279509048270687
0006f0 da aa 83 7b 15 e3 b4 bf fe 3f 1d 73 62 82 90 3f
       -0.08159002557264775 0.016122377658859925
000700 6d db e6 7e 11 c9 af 3f 33 5e 09 6e ae db b0 3f
       0.06208090471357406 0.06585207163276934
000710 9f e1 7b bc f4 31 c6 bf cf e6 59 53 57 fd 93 3f
       -0.17339953616443624 0.019521107160904102
000720 53 31 e4 bb fb e3 b3 bf a9 a8 69 b2 ad 13 b5 3f
       -0.07769749962989651 0.08233152013568436
000730 9d 21 ad 4e 76 09 be 3f 12 45 52 85 73 2d c0 bf
       0.1173318807678982 -0.12638706216652246
000740 dd 0a 76 5a a6 ad c7 3f 2e ad ef 5d 6b bb d0 bf
       0.18498687188192423 -0.2614391724916513
000750 31 a1 5b 7e 2d 15 c1 bf 29 f6 bb 6c 2c b3 d7 3f
       -0.13345879239865036 0.3703108846528687
000760 f5 b5 ee 02 f9 d7 bd 3f 04 b0 a4 a3 91 75 b4 bf
       0.11657673188775404 -0.07991895909498231
000770 7d e5 41 3a 2d cd a6 bf 9b db 40 48 cd c8 a8 3f
       -0.04453412376546859 0.04840699679373658
000780 d0 f3 15 c8 f0 31 ad bf 25 d7 8d 4a 02 ba 97 3f
       -0.057021641182451455 0.02317050533334632
000790 18 d9 93 4e 75 2a bd bf 07 3d d6 af 9f 17 a1 bf
       -0.11392911117932092 -0.03338336011358405
0007a0 65 40 5b 32 4d 41 92 3f de 57 b4 c4 84 12 8a bf
       0.017827230642808795 -0.01273063397688284
0007b0 7a d3 b2 c4 41 8e 95 3f 92 d2 c9 d2 b8 3f b7 3f
       0.021050479536558232 0.09081607004356787
0007c0 4e 1a 3d fa 93 af 93 bf cd 11 d1 7c c3 d4 b2 3f
       -0.019224464557988256 0.07355901524812865
0007d0 99 57 32 3f 3a 15 bb bf 8f e0 38 73 da 92 c8 bf
       -0.10579265635382597 -0.1919816076858791
0007e0 4b 92 75 b4 c1 19 a8 3f fd b0 fc 0a 12 06 a3 bf
       0.04707150771972531 -0.037155689088054424
0007f0 11 0a ab 3f db 7b b1 bf 5a ce 11 c2 9b f4 96 3f
       -0.06829614929578322 0.022417482109132393

bias f8 [30]
000000 5b 9a 49 0b e8 38 a4 3f 9e 35 d8 88 0d af 95 3f
       0.03949666154658323 0.021175586201982115
000010 f2 97 f9 a3 8e 15 a4 3f 8a 5e f6 af dd 2f ae 3f
       0.03922696830413476 0.058958938340933534
000020 84 98 4b 03 3a 44 b1 bf aa ac b9 87 a6 24 70 3f
       -0.06744730549289285 0.003941202648643097
000030 97 bc 94 c0 c2 e7 a6 bf eb 7d e7 5d 44 d6 c4 bf
       -0.044736944206641364 -0.16278891167802043
000040 63 c6 65 a1 8e 1d 41 bf 8b 00 62 79 2f 2d c7 bf
       -0.0005223223150052188 -0.18106645037551447
000050 c7 8b f3 c2 ff b6 a1 3f 28 6a 9b 23 d5 01 a0 bf
       0.0345992970922207 -0.031263981434410504
000060 7e 4b 8e 7d ce 44 c0 bf 6a e6 e4 7c 45 6b b4 3f
       -0.12709981089264127 0.0797618322293602
000070 d5 bf a0 97 8e d1 b9 bf 6a cc 78 9c 32 e4 8b bf
       -0.10085383607724847 -0.013618846321241846
000080 7a d5 57 71 a3 82 a1 bf f6 3d 41 3b 3b 47 aa 3f
       -0.03419981726248529 0.051324702246912254
000090 f4 db b1 00 57 f6 a5 3f b2 36 e5 38 78 16 9f bf
       0.042895048937616226 -0.030359152290933174
0000a0 9a a6 38 9c 85 7b 4d bf 3b 81 6c 36 43 e7 c1 bf
       -0.000899734725355833 -0.1398700729123535
0000b0 bd 2a e7 97 b8 1f cb 3f 1e 61 63 67 8f 0d 88 bf
       0.21190555016649695 -0.011744613974244585
0000c0 c4 cf 3a e8 3f f4 c3 3f a0 4c 86 be 8f 0f a3 bf
       0.155891407388138 -0.037228099830053596
0000d0 27 14 ef 1b d2 34 8b 3f 4e 5f 0f 11 9f 1e 6d 3f
       0.01328434131381513 0.0035546404619530075
0000e0 49 f1 4d ec 04 dc a6 bf 6c 64 d7 84 53 26 50 bf
       -0.044647363515624656 -0.0009857001890536633

weight f8 [30, 30]
000000 5e e5 7b 02 14 d6 ce bf 03 7c 1c 83 cf 59 c4 3f
       -0.24090814706122904 0.1589908018295035
000010 98 e4 92 62 52 ea cd 3f 6c 16 42 ec 3f ab ac 3f
       0.23371343434499603 0.05599403151522328
000020 67 62 91 ed d1 7f 83 3f 18 fc 60 6e 73 4e 91 3f
       0.009521141111848054 0.01690082894515052
000030 64 a6 14 21 0e 1b a0 bf 56 41 13 94 46 76 c4 3f
       -0.031456414735953314 0.15985948782191411
000040 a7 25 4d 98 7e ee ba 3f 3f 0f dc 8b c7 93 c1 bf
       0.1052016374425394 -0.13732237176020054
000050 73 6e 69 6e e1 0d a9 3f 16 89 d3 6b 3a 4b a5 bf
       0.04893402550507355 -0.041589570677176876
000060 4d 6a 98 26 b0 5c ae bf 11 d2 a9 7b f6 d4 7d 3f
       -0.05930090399870789 0.007283175301030302
000070 4a a3 80 96 35 9d d5 3f 1e c4 14 6a 09 15 bd bf
       0.33772029588231034 -0.11360224571105035
000080 cb 8b 9f d0 bf 2d bd 3f 48 9f 93 a6 08 59 d3 bf
       0.11397932856884478 -0.3023091913914766
000090 89 c6 c8 ad 67 c2 a5 bf fe 5e 62 56 18 1a 9a 3f
       -0.04249881740942125 0.02549016978500073
0000a0 22 b5 f8 6c a0 da 84 bf 81 99 3d ae 7c 0b c0 3f
       -0.010182622266337097 0.12535055644839235
0000b0 a5 90 a2 e8 22 49 c9 3f 98 b3 61 e7 d6 0d b5 3f
       0.19754444464809243 0.08224242352453215
0000c0 ed 5a b2 85 dc 05 c0 3f 4e 58 fd 52 22 4f ba bf
       0.12517887619170356 -0.10276999021638852
0000d0 31 c4 43 40 e5 e0 91 3f 68 8d ca da d1 8b c0 bf
       0.01745947079411198 -0.12926695998349236
0000e0 62 e8 9d 80 69 d2 b0 3f 54 f7 ce f2 41 7d 8d 3f
       0.06571063413676506 0.014399066183496657
0000f0 f3 d4 f6 5b 77 69 d7 bf 89 6f 7c c5 7b 52 ca bf
       -0.36581214886548635 -0.20564219611048554
000100 1e 37 43 19 b2 0d bf 3f 39 cb df 8f 40 61 d1 3f
       0.12130272976648057 0.2715608029385979
000110 a7 d3 ec b7 af 09 d1 bf 31 a3 ba 49 ce 86 be bf
       -0.2662162109511947 -0.1192444734575815
000120 4f 46 5d 0f 9a b9 cf 3f fb fd c1 79 9f a2 d2 3f
       0.24785161733830072 0.29117571726234787
000130 d2 d4 ce 7d 2c 33 90 bf ce 1c f6 14 82 d9 c6 bf
       -0.015820212534625018 -0.1785128214216684
000140 34 51 bf 2c f3 3c c5 3f fa b6 41 dd ec dc aa bf
       0.16592254338196144 -0.05246677590262823
000150 03 6e 27 fe 2f 31 bd bf b9 da 6a 88 20 91 c4 bf
       -0.11403179125721156 -0.1606789270496927
000160 41 d7 89 79 2a 4e bc 3f 23 91 05 e5 2d 63 c0 3f
       0.11056771723982896 0.12802671129896578
000170 c3 0a 44 1f 16 6f 9d bf 2f 0e 0d 6c 65 df d1 bf
       -0.028744073541939096 -0.2792600207505726
000180 3a 4e d9 e0 62 57 e4 bf bf db 28 3b 6e 99 a9 bf
       -0.6356672660426235 -0.049998707505828126
000190 e7 9e f6 9e c5 90 90 bf 87 de 73 c3 f5 e4 c2 bf
       -0.01617726118789067 -0.1476123051031559
0001a0 df de 34 d3 0f 97 db 3f 9f 31 ca f5 3e 7f 9e bf
       0.43109508157384185 -0.029782279731578872
0001b0 99 1f e9 27 18 5c c6 3f d5 71 98 a4 04 d6 cf 3f
       0.17468549679528847 0.24871881520165454
0001c0 0c 7d 02 40 ea b7 b1 3f e6 08 07 96 d6 f9 d9 3f
       0.06921257078873938 0.40587391520615623
0001d0 56 28 e6 48 37 54 b1 bf 76 0c e6 cd 9a c6 c0 bf
       -0.06769128350984607 -0.13106093457836082
0001e0 67 b2 6c 32 66 7d aa 3f 7b c1 85 f0 c1 11 b7 bf
       0.051737970023485506 -0.0901147091115088
0001f0 08 2d 6f 2c 7f bc 9d 3f 87 26 28 16 56 df a0 bf
       0.029039370619824673 -0.032953920559589504
000200 46 91 0d da bc 11 c5 bf 24 6d 18 b5 e3 7c b3 bf
       -0.16460381171340027 -0.07612441226267613
000210 80 85 26 1a 23 56 b8 bf 3c 74 86 e4 11 1c b5 bf
       -0.09506434811057396 -0.08245956258038317
000220 ed 5a ed 20 42 e6 b3 3f 51 8c 03 9b da 95 ba 3f
       0.07773221305738405 0.10384908947485029
000230 4b 1e 32 a3 1e c7 be 3f ff 8a 82 1a b3 47 a9 bf
       0.12022582515975803 -0.04937514971358858
000240 3c e9 22 59 c2 f7 be bf 2e 9a e9 42 26 e9 a9 3f
       -0.12096800495320265 0.050606914203673234
000250 54 f1 08 be fc b3 ae 3f 8c b3 69 42 16 25 b4 3f
       0.05996694392931326 0.07869090196045486
000260 14 b7 43 41 d9 a2 7f bf 0c 24 e2 4c 89 87 a2 3f
       -0.007723663951976229 0.036190310130287257
000270 b4 2f 12 78 1c 03 b6 3f 15 c8 2c 38 8b 47 ca 3f
       0.08598497325345883 0.20530834429661185
000280 27 d6 d7 5f 3b a6 ba bf 5a c7 e7 4d 02 8e a8 bf
       -0.10409899797363008 -0.047958442697462814
000290 08 25 4d b7 53 0e a4 3f f4 78 70 d4 82 8a d3 bf
       0.0391718064552809 -0.3053290438273415
0002a0 c5 15 dc 29 db 1b 8f bf 71 77 c1 95 63 81 97 bf
       -0.015189850058514484 -0.022954517379154497
0002b0 1e d3 dd b5 91 17 ae 3f eb d2 d9 14 f5 ce a8 3f
       0.0587735685830124 0.04845395926978376
0002c0 12 c5 98 e5 d6 7f c1 3f 4e bc d8 5c a8 76 c7 bf
       0.13671385012416032 -0.18330864461447266
0002d0 e0 67 71 00 6a 68 ae 3f b7 00 e1 e5 56 77 ac 3f
       0.059390366128994065 0.055597987710372214
0002e0 3f b4 ca 54 a9 4c a2 3f 35 50 f3 cd 3c 5f a3 3f
       0.0357411304479247 0.03783597959559907
0002f0 c7 c7 84 ae 05 e1 a7 bf ae f7 ab 34 96 3d 90 bf
       -0.04663865809779071 -0.015859934773281452
000300 b5 7d 00 1b ae 64 b6 bf 6a af 0b f7 49 7d c0 3f
       -0.0874737564013149 0.12882351458335545
000310 ea db 30 e5 63 ff ba 3f 1f 03 1b fb e9 26 b6 bf
       0.1054594454334247 -0.08653128033166667
000320 46 90 dd f2 de 12 bb bf e4 98 99 3c db af 84 bf
       -0.10575669698079179 -0.010101044451584724
000330 08 9b 95 59 1a 42 b6 3f 04 14 59 ee be 6e a1 bf
       0.08694615065688194 -0.034048048587045826
000340 a0 ae 7a a1 35 e6 a8 3f 97 65 47 d3 e6 b3 97 bf
       0.048631359063930235 -0.023147207875671674
000350 f1 30 21 00 13 0e 6d bf a9 68 ab a5 d9 3f ba bf
       -0.003546750173916029 -0.10253677649180538
000360 23 b2 fb 9a 1d dc c0 bf 42 6c 69 78 45 2e be 3f
       -0.1317173964265673 0.1178935450529233
000370 08 d1 ae cf c0 53 b8 bf f2 b8 42 e9 41 31 b4 bf
       -0.09502797193892232 -0.07887660927619658
000380 7b 15 80 78 e5 46 a6 bf af d2 1a 81 71 aa b8 3f
       -0.04350964637709872 0.09635075952503301
000390 90 10 70 62 be d5 16 bf 4c 63 5b a7 47 d6 b9 bf
       -8.710836901576675e-05 -0.10092590175498833
0003a0 73 28 55 75 ae c1 bb 3f 01 e0 0b ba 9e 00 bc 3f
       0.10842409481588948 0.1093844608511745
0003b0 43 39 7c d0 f0 fa af 3f 69 ca 15 ec 56 64 6b 3f
       0.062461400461062876 0.0033437440585484712
0003c0 dc 63 2d 8f 56 3f 87 bf 39 aa d7 53 45 b9 bb bf
       -0.011351276630806532 -0.10829575821814154
0003d0 3d a0 69 2e e8 c6 bd bf c2 1c f9 5d 40 01 ca bf
       -0.11631632931823872 -0.20316319073228867
0003e0 af 5a 3a 38 cb 1c b1 bf da d0 ad e4 28 66 c2 bf
       -0.06684560892822831 -0.14374266782727468
0003f0 c1 5f 88 8c 36 7d 95 3f c4 05 90 e5 d6 0a c9 bf
       0.020985462500987987 -0.1956432934676241
000400 91 58 6d 17 8a 79 bf 3f 4d 57 2e 5a 03 12 d3 3f
       0.12294829437209588 0.29797443205585666
000410 87 e8 2c 9d d0 46 c2 3f cd 45 47 0a 47 19 c2 bf
       0.1427860991914864 -0.1413964080989402
000420 ed fa 1b 1c e3 86 d6 3f e8 34 1b 9a 47 73 bf bf
       0.35198285813377944 -0.12285277855263
000430 9f e8 09 00 f0 bb c4 bf 57 81 f2 b8 c1 9c cc 3f
       -0.16198539735689096 0.22353383570317462
000440 44 6e 3b d5 b2 33 d0 3f cd d3 ef 0a e8 0a cb 3f
       0.2531554300637462 0.21127033742928206
000450 98 e4 90 39 bb eb bd 3f 7b 69 19 1d 06 57 b9 bf
       0.11687822490138655 -0.09898412905150693
000460 ac a4 85 cd aa ab b2 bf a5 98 16 ac a5 48 ce bf
       -0.07293193357112909 -0.23659201529261967
000470 1e a7 0d d4 3b 30 b0 3f 42 70 11 33 7b 9c b0 bf
       0.06323598792155535 -0.06488771435528043
000480 21 28 94 fe f0 ba bc 3f 67 91 ae 03 e3 34 90 3f
       0.11222749915410236 0.01582674703571865
000490 89 3e 51 8c cc 15 d1 3f 62 0c 93 4c 6d 39 d7 bf
       0.2669555063521121 -0.3628800628468466
0004a0 46 54 80 c2 18 b7 d1 3f 46 4e 42 3d 97 76 b6 bf
       0.2768003367830868 -0.08774705167371008
0004b0 7d b4 28 ca 00 54 c9 3f 02 cf 73 be ba a2 cc 3f
       0.19787607070012206 0.2237161092704057
0004c0 35 ed 43 f2 ad ac bc bf b7 d0 81 95 80 06 c5 3f
       -0.11200987972909078 0.16426093387747695
0004d0 6b 23 1e 32 c6 60 b9 3f af 51 d7 14 c5 fc 90 bf
       0.09913290713860838 -0.016589240452803796
0004e0 bd 9d 2a 75 f0 c2 aa 3f d9 80 43 4c de ec 80 3f
       0.05226851873640779 0.00826429052580162
0004f0 61 10 b3 89 ac b7 b5 bf c5 07 b1 ae 51 d9 ac bf
       -0.08483389245799479 -0.056345512938164734
000500 a2 cd 68 1a 3d d4 d0 3f c3 09 f1 6c d4 da b7 bf
       0.26295402125398415 -0.0931828275652498
000510 6a 87 99 cf 2c c9 aa bf c8 dc f6 c9 f7 2f bd 3f
       -0.052316093770754815 0.11401318245667647
000520 30 c6 99 36 c1 fd bd 3f fa ad 29 1a 16 a4 d3 bf
       0.1171532400419657 -0.30689003519975666
000530 eb b3 0e e9 d7 9f 9e bf b6 b7 1c f6 96 15 c5 3f
       -0.029906629180619076 0.16472136513897134
000540 54 4d 6b 81 e6 f1 ce 3f 44 a3 15 12 cc f8 af bf
       0.24175721473020906 -0.062445046622832595
000550 5b cc 43 82 70 be c0 3f 96 d0 44 f5 93 71 c3 3f
       0.13081175194347136 0.15190362430587773
000560 ef c8 aa 2d 49 7e c8 bf da ac 00 1a fd 95 ab 3f
       -0.19135393838730105 0.05387869779982575
000570 dd ba cf dc 62 52 d1 bf cb 14 2a e4 f1 1d e0 3f
       -0.27065345347993547 0.5036553818069022
000580 85 7e f9 ac 20 83 75 3f 47 02 d3 39 f1 4b cf 3f
       0.005252006186850293 0.24450507472467306
000590 89 20 b2 b3 e6 9c b7 bf f2 4b 4f c7 45 40 ce 3f
       -0.0922378720007392 0.23633644325181496
0005a0 f5 0c 51 04 d7 7d 8c bf d2 22 dd 88 a1 3a c9 bf
       -0.013911895579559611 -0.19710177595904682
0005b0 ca ea 5f 2e fd b8 d1 3f 4d 19 9a b8 53 93 a8 3f
       0.27691583184029567 0.04799901607934718
0005c0 b1 f1 0b 63 b5 8b b5 bf e1 33 8c 59 19 30 ca bf
       -0.08416303318148867 -0.20459286568112048
0005d0 e3 52 d2 61 b7 7d bf 3f 62 a0 06 52 30 2d ca bf
       0.12301202905866719 -0.20450405125780252
0005e0 bf 4a 3a 3b f0 a5 79 bf 0b e0 5a 0f a6 98 49 3f
       -0.006261766818755176 0.0007811365928409598
0005f0 45 ee 48 5a a1 ec b9 3f be 7a f6 2d ff 40 bf bf
       0.10126694158764689 -0.12208552238596845
000600 a7 7b f9 38 24 8b c9 3f 25 64 d7 a2 2f 16 df bf
       0.19955876142463788 -0.48572913076856344
000610 e2 31 f0 98 7e 8a d9 bf bb d5 35 db 19 dd b4 3f
       -0.39907803473832193 0.08149873353780539
000620 81 28 31 43 30 0f bc 3f 0c 37 d6 87 c9 ce a9 bf
       0.10960675850324898 -0.05040578635371959
000630 a1 11 8a 17 b2 fe c0 3f 6b 8a 29 2c f3 e9 a3 bf
       0.13277269505864545 -0.03889427103128614
000640 76 2b 9a c5 62 7f 99 bf 17 4e 01 69 8c 02 c1 bf
       -0.02490000086849472 -0.13289027335359613
000650 4b fd fb a6 d0 4a bb 3f b1 27 a2 3f ff 01 bb bf
       0.10661033703580818 -0.10549922278928993
000660 e3 4a 7f 27 1b 3a d1 bf 50 d1 f5 f7 ae 0d 8b 3f
       -0.26917151314880366 0.013209692899842779
000670 8d c8 c0 50 d3 fa a6 3f 02 ff ae 16 c2 bc d2 bf
       0.04488239632372979 -0.29277088370507454
000680 43 e2 33 f8 ce 4e cc 3f 24 e8 ba 6c 0f 7c ca bf
       0.22115504378577286 -0.20691101845824378
000690 78 8d c0 e6 48 b9 66 bf c9 03 81 f6 8e 58 b8 bf
       -0.0027738975386612484 -0.09510129469073471
0006a0 8f 49 73 ed 92 08 c2 bf 43 8b 7a c0 b8 62 d5 bf
       -0.14088665575270595 -0.33415049359080146
0006b0 e9 df 65 70 f4 47 85 bf ab 1f 42 0a 7c bd d2 bf
       -0.010391149215806155 -0.29281521798884097
0006c0 22 94 24 2e f2 f5 d1 3f 35 f0 75 7c 62 b5 d1 bf
       0.28063635355130334 -0.2766958442150583
0006d0 63 e9 82 9d 49 d0 b7 3f a9 22 9d 54 55 8d d2 3f
       0.09302196593754312 0.2898763014132251
0006e0 20 6d 2a 33 bb a2 c6 3f ec cb ff 39 90 fb c1 bf
       0.17684116361929458 -0.14048960525505494
0006f0 34 79 b4 91 e0 f0 c0 bf 22 e9 be 67 ca 33 b4 bf
       -0.13235098948002533 -0.07891526253562067
000700 c8 e5 30 99 5c a0 c1 bf 85 cc a3 ef 28 1c ce 3f
       -0.13770635108975982 0.23523437215007817
000710 97 fc 17 86 5f cc c4 3f 08 11 10 3f f7 1a c9 3f
       0.16248697326225134 0.196135431091655
000720 7c 54 aa a8 fc 03 a3 bf 74 cd d2 0f c7 7b bf 3f
       -0.03713979300406664 0.12298244606318126
000730 b6 f2 08 85 24 9c ac 3f d3 dd a9 1f f3 45 d2 bf
       0.05587877391778788 -0.2855193909849422
000740 cc 60 5e 6e a1 6f d4 3f 54 7d e2 6c ad 7b d2 bf
       0.31931339052381413 -0.28879867203973686
000750 47 35 dd 0b 99 90 c7 bf c4 92 cf d4 2d 66 ba 3f
       -0.18410027579595065 0.10312162824227317
000760 09 88 9b 00 0e d9 d6 3f b9 4e 76 74 d5 32 c8 bf
       0.3569979673321773 -0.18905132471683375
000770 52 4c f6 cc 40 64 cc 3f a9 d6 e9 ff b6 c7 b5 bf
       0.22180948264994754 -0.08507865665327564
000780 65 05 a0 16 44 69 a1 bf 70 b1 fe d9 8d bb 20 3f
       -0.03400624061760985 0.00012765986047947762
000790 8c 99 c5 0a 90 8e da bf 8c 13 a2 49 f0 ac c5 bf
       -0.41495133449498023 -0.16934016795508133
0007a0 5d 00 e8 e2 91 08 b0 bf eb 9d c6 66 05 af c5 bf
       -0.06263076581672196 -0.16940372007705604
0007b0 eb 6f d0 10 f4 ee ba 3f bf ad d8 3a a8 2f b3 3f
       0.105208639245063 0.07494594036750522
0007c0 71 b4 5a e6 4f 0e 9a bf e3 8c b9 d7 b7 b4 cf 3f
       -0.02544522136183897 0.24770257981717866
0007d0 e8 44 e4 4b cb 96 c1 3f 72 de 8e a3 2f 8f c3 bf
       0.13741437154434455 -0.15280719267115078
0007e0 0f a6 16 6c 12 72 c6 3f 05 9d 7b 28 8e f9 b3 bf
       0.17535620000607863 -0.07802666176177205
0007f0 d1 73 33 2a 92 2e 9c bf 58 8c 58 5f f6 7a c3 3f
       -0.027521404100173733 0.15219001441537006

bias f8 [30]
000000 a1 65 fe 54 b0 ea ae bf 2c b2 ad e5 5c e8 ac 3f
       -0.060384283423626124 0.056460288083006155
000010 c3 2f d2 fd 1c 8a 91 3f 06 e6 64 4e 90 83 90 3f
       0.01712842272949878 0.01612687567214801
000020 87 a3 7d c0 16 e6 9d bf 66 95 69 28 72 e2 a5 bf
       -0.02919803190107786 -0.04274327033344143
000030 6d 80 8e 5f d8 67 9e 3f c5 01 ff 9b 86 9f ab 3f
       0.02969301303130616 0.0539514604020073
000040 a7 c2 2d b5 34 66 99 3f bb 3d 21 ad 69 23 17 bf
       0.024803947027467157 -8.826572892072549e-05
000050 29 3c e2 a2 55 7b 93 3f 5d 7d 57 d0 b3 32 a2 3f
       0.019025171343454304 0.03554307859644255
000060 de e1 e6 b1 ee 9f 90 bf 16 74 e4 05 85 34 a8 bf
       -0.016235093696851048 -0.04727569291046778
000070 73 1f 5d 37 1a cf a6 3f 1e 06 61 cb 98 6c a8 3f
       0.0445488159735409 0.04770352823880962
000080 39 7c 14 e1 fa 20 a5 3f 62 69 bc f3 14 05 67 3f
       0.041267242408359946 0.0028100403996066817
000090 6e ad 15 d7 18 71 a7 3f 07 bd 9b 86 7c 6e 84 bf
       0.045784736876920515 -0.00997636113922208
0000a0 06 db 04 9a 19 fd 8c 3f dc 44 a4 38 7f f0 ab bf
       0.01415462495115839 -0.054569221176402144
0000b0 b9 49 e7 d0 2e a1 b8 bf 00 b3 db 77 8b bf 85 3f
       -0.09620945549185124 0.010619248957902894
0000c0 ac 09 97 3d 58 a8 67 3f b6 70 a9 83 39 85 8a bf
       0.0028878901909774237 -0.012949418383123006
0000d0 1c 3a a2 d0 3b 98 72 3f de 00 46 25 10 90 fd 3e
       0.0045397125742412635 2.8193231928153792e-05
0000e0 64 43 cc 49 91 29 b4 3f 88 f1 40 d5 4f 59 a7 3f
       0.07875927020746826 0.0456032703227463

weight f8 [1, 30]
000000 d0 6d 85 cb c0 0b e4 bf a8 ce 4b df 49 c8 f2 3f
       -0.6264347052596637 1.173898575067975
000010 29 df 4d bb f2 0d db 3f 5c 00 5c 44 3e 7b b5 bf
       0.4227263287680097 -0.08391179245882213
000020 eb d8 10 cb 93 2e ec 3f 42 3d 5d b5 79 e6 eb bf
       0.8806857076768017 -0.8718842069883197
000030 ff 1e 7a fa 3d 04 ed 3f ae 5d 12 2d f7 fc ee 3f
       0.9067678348664855 0.9683795814807377
000040 d1 f2 c9 a9 cf 53 ee 3f a5 9c 8a 89 6e 02 bd bf
       0.947730857485647 -0.11331835611291526
000050 1d cc d1 dd c2 ca cf 3f 6e ba 7a d8 e5 7d e7 bf
       0.24837528067618644 -0.7341183879960462
000060 7f 0d e7 19 a9 83 82 3f 30 c1 89 e4 4b 8f d7 3f
       0.009040185072882732 0.3681211215798781
000070 3e 4a 8b 56 7d bf e1 3f 22 d9 2e 5b 41 82 ef bf
       0.5546251955332264 -0.9846503048818571
000080 31 90 cd 2b b3 8d e5 3f 7d 46 6c f4 85 80 f0 bf
       0.6735473495032293 -1.0313777492305285
000090 4e a0 5c b2 d6 ab db 3f 44 64 5e cf 2e 4d ad 3f
       0.43236319940706813 0.05722948342663206
0000a0 20 cb 7d 82 c2 2d b8 bf b2 2f 2e 95 28 5f dc 3f
       -0.09444823919129108 0.4433080155220025
0000b0 91 16 22 84 78 65 e6 3f 9c f8 eb f5 69 16 cc bf
       0.699886568138668 -0.2194340182103972
0000c0 36 2b 46 97 ce 5c de 3f 82 ab 8e bf 78 ea ce bf
       0.47441448948727627 -0.2415305075968171
0000d0 fd 0a 30 ad e8 43 ea 3f 79 d4 6c 96 7f 87 c4 bf
       0.8207896597453722 -0.1603850826738016
0000e0 f3 c7 00 41 57 29 e1 3f 5d 30 45 b6 4c 82 c4 bf
       0.5362964887228813 -0.16022642993846406

bias f8 [1]
000000 e0 e2 4c 4c 72 b5 ba 3f
       0.10433115351487343
