network/dnn_02/BiasNet_tdoa.pkl (torch, 21559 bytes, 8 tensors)

weight f8 [30, 10]
00000000: c50e 3e4a 9507 cdbf 7c2a 5b2b 363c c7bf
00000010: c0ea 8ed4 fe02 bcbf eed1 ba7e 7e8c cbbf
00000020: 1854 f2e6 d4f2 95bf f398 1022 8aa0 c9bf
00000030: 7708 3a87 3d88 bc3f fb34 1f79 4f8c b93f
00000040: dadd fa38 5baa a03f 7012 010f a4ab c43f
00000050: 54f8 ae67 210d aa3f 073e 9a36 d42d b63f
00000060: 77c1 00fb 8616 d0bf 829a b776 5def b13f
00000070: 0ea2 3963 ca03 c2bf 77bc 75d0 7cff 813f
00000080: 722b 596e d6dc c6bf 3025 abe1 8e3f c03f
00000090: 9809 b320 6bab cc3f d99c 59e7 6414 c93f
000000a0: a2bc f8ac 0f29 b13f 1333 5a46 8a80 c0bf
000000b0: 29de c65b 5efe c93f 0806 be65 d839 ccbf
000000c0: f022 0cae 5276 c2bf 3a37 01e4 0c11 c2bf
000000d0: 70f2 e008 0dfb b7bf 3109 2cc2 4a12 a73f
000000e0: 63e1 8e61 58e9 c5bf 82ee be2d 0349 c6bf
000000f0: b21a 7eca eaaa bbbf 06bd d29f b4a7 c13f
00000100: c927 de49 2ddd c4bf e2b4 5870 adf1 c9bf
00000110: 5061 efa4 2112 c9bf c58e 0e6f f577 bcbf
00000120: d9cb 6dad c966 aebf 3259 e505 22ad ccbf
00000130: 5b78 27b8 0616 bbbf 29fc 6835 a9ce 713f
00000140: 5fa3 2822 819b c13f 8385 7264 eedf cc3f
00000150: 2275 ab39 3f8b ca3f 3f3a 7f57 a57d c8bf
00000160: 9a2e ca8f a5ae c53f 33e5 e980 bbcc 893f
00000170: 825f b259 4071 d5bf 406a 80bb b370 bbbf
00000180: 77a1 013d 06a7 c9bf 3f8a eba6 ae0a c13f
00000190: 38e6 0cee e969 c83f 8be8 5520 a9e3 d4bf
000001a0: 8fc5 8381 9c77 a0bf 96a9 4028 649b d73f
000001b0: f393 a1c4 a3f7 b43f 5fe0 6121 6d4c bc3f
000001c0: a55c 79dc 5262 8c3f e0ee 8ad0 abfe be3f
000001d0: 2737 5d22 eaca d23f ac3e 60e0 c048 bfbf
000001e0: 674e 9234 2787 c43f 160d ab82 4c7e 903f
000001f0: 52fd f28c 8c64 c5bf faa6 37ef 80a4 b9bf
00000200: eb49 f90c 08aa c5bf 73b0 4bb5 56f5 c7bf
00000210: 4e19 8963 09a1 763f 46f9 02fe c6ba c4bf
00000220: 73e7 aa02 33d5 be3f aecd 924c 8ddf b93f
00000230: 3baa e322 c173 c23f db99 0b78 7eb5 c93f
00000240: 04f9 3cce f21f d0bf 57fd c5a4 6e50 a33f
00000250: 62fa 4a3c 8b04 c93f 8bc2 1319 97bf d03f
00000260: ee27 7477 9026 ae3f a033 41b6 f9a5 cd3f
00000270: 8983 67c0 6372 ba3f c895 e91c 0c43 b0bf
00000280: c57e de5a cded c8bf 11a4 3d57 1fed c8bf
00000290: c42a d389 df1b cabf bb77 8dfd 0733 8a3f
000002a0: 197d ca7c 298c c83f 91f9 81b7 613e c9bf
000002b0: 6abd 93bb 0a05 b73f ea1f 709a ee86 c9bf
000002c0: eb61 0670 3739 c3bf 1a5c f581 62ba b3bf
000002d0: 88e6 6caa c551 d7bf 453d 8f5f 17c2 c53f
000002e0: 1f5c 7d88 5cac b2bf 419d 287f 642e de3f
000002f0: e557 1c4f ad7c c0bf 8b0a 8174 1780 8c3f
00000300: ed1d 0d7f 3ebf b6bf aabf 89c5 dc03 c03f
00000310: 4362 6b51 9e79 8cbf 7f88 7ca8 0d55 c1bf
00000320: 75d3 3a1a 8ff9 a63f 360d 10cb a5ef 653f
00000330: 9865 00a6 19cf c03f a8ee 174c 7e41 a2bf
00000340: c075 4326 6843 a83f 5aed 8e8f a035 bcbf
00000350: d1ee 8542 e6fd d4bf a381 b420 ae44 b3bf
00000360: f720 4d07 71b6 a83f 00d5 b65f de69 c2bf
00000370: 8197 8481 e9e2 be3f 1ff2 ed49 3106 c73f
00000380: 9488 fbc4 c493 c9bf 74bf f0a3 dc38 d1bf
00000390: 161a 9478 6646 bbbf 7577 f852 0d10 d3bf
000003a0: 387b 0fa0 62a4 c43f f3ee 8a48 705a c63f
000003b0: f3c5 3451 10c5 7e3f 1cc1 6189 57a6 d13f
000003c0: 2ed5 9133 0a07 b03f 86aa 142f f421 cdbf
000003d0: c46f 69a7 403f ccbf 1538 7c61 c293 b4bf
000003e0: 9921 9898 7239 cebf 9304 08c4 0210 bebf
000003f0: 5e73 616e 4258 ae3f 7657 f24d 4eee 4d3f
00000400: d240 ca5e e2a7 a1bf 7ddf a820 0972 943f
00000410: 8b54 9beb 9535 da3f 6a5e f597 0160 c43f
00000420: 2059 b171 f566 c53f 260c 4a47 0326 b03f
00000430: e03d 295d 7b8c d2bf a930 6f23 1dcb 783f
00000440: 105a baf6 a485 b0bf b585 db88 6fb2 91bf
00000450: 8441 dd87 2261 ddbf 1963 abd2 977b a4bf
00000460: 8ceb 357e 00df cbbf 4e44 4768 16ae 663f
00000470: e17d 7f44 666f 843f 7d23 5f5a 02d4 b23f
00000480: 9b99 b971 5ada b3bf d46f ecc1 10e7 a0bf
00000490: 3d1b 7e29 ef63 ac3f cf32 ad30 de04 ccbf
000004a0: 92b6 201c 8974 bc3f 1274 8136 4df6 cb3f
000004b0: 531a b7fb 2f17 cfbf c844 f90a 5866 d63f
000004c0: 3880 b965 2d4c c23f 82da 8566 4f8f d63f
000004d0: d8a4 2cbf 84ad d23f 776c 76e9 480b d4bf
000004e0: e3cb 5054 4919 c43f e5e1 bbf2 ceb5 a43f
000004f0: 28aa f40c c4f8 b9bf bd96 4f16 c06f b4bf
00000500: f198 6541 060c c7bf 5a20 9d7f cbcd 933f
00000510: 2025 9347 e242 b03f fcc0 9ab0 9fb5 bd3f
00000520: 01a0 9e0b db57 c8bf eb76 bc9b 0bdf cbbf
00000530: 3e8a 6650 d0a1 bb3f 2244 2446 0e30 a8bf
00000540: 0088 dbec d13e 3ebf cff4 6e4a 1cfe adbf
00000550: 91cf b486 16ea aabf c098 3b7f 0ed0 cf3f
00000560: 6e24 0107 eda4 d5bf 51d3 14cd 3a63 ca3f
00000570: 3c5e e7eb d22c b03f 2423 5664 0edf b83f
00000580: ab7b 92ee 1eef c6bf 534c 7961 238a bc3f
00000590: 91cb ffcd d197 d33f 914d 9a6d 5886 b0bf
000005a0: 5389 6666 6846 d03f 5be7 0d6a 14ed 9ebf
000005b0: 4a65 732f 3e4e cb3f 2afb 7546 4093 ca3f
000005c0: 67d1 379c c5d4 b23f 35a8 9db2 e6a4 84bf
000005d0: 5e55 b658 3970 9bbf d0b1 43f4 41b0 9e3f
000005e0: a785 ebe1 e399 d4bf 8e0f e393 a170 b53f
000005f0: 0f15 e3b9 5d59 d43f f38b af50 2409 d5bf
00000600: abd1 69f2 1abe c8bf b9c2 1e22 5b5d b9bf
00000610: 5dbb 2834 9929 c93f 1ebb f3e9 4ad2 ce3f
00000620: 1fd7 a096 a1e6 a6bf bc7b 0b50 b7f3 bb3f
00000630: 5dbc 9e3a 5f53 bdbf b095 2dad 88e1 cb3f
00000640: 0b1a 5daa b9a7 cdbf f76f 30e6 cd63 c33f
00000650: 5509 3857 9b87 c93f febe 5f53 b225 c63f
00000660: d03d 2992 e29d d43f fb1a 3b85 f7a2 72bf
00000670: 42fd 28ab 8b31 ce3f 6b87 7bd3 7612 cfbf
00000680: aed1 b645 879a c93f f2fd 6f2d 7435 ccbf
00000690: a878 b661 a860 bbbf 6783 ab4d 1931 d1bf
000006a0: 896d 915e 6238 d73f 645c 0df9 fb45 ca3f
000006b0: 4565 48d4 7a64 91bf 1610 f3ff c256 d3bf
000006c0: 728d fb6a 4199 babf ba95 47ec dafe bf3f
000006d0: 6fac 6f8b 08d6 cb3f 2d47 dd5e d25a a1bf
000006e0: 30f0 d2d4 eb9c c1bf d3b6 0cdc 4343 ccbf
000006f0: 3169 46df 0658 b63f 8cd6 1c23 c92f bf3f
00000700: c59a 7d0e 2b5c c13f 96fd 52af b11c 953f
00000710: 0cbb 3c5d c208 9cbf 9ab0 210a 1040 a43f
00000720: 0364 5877 42bf c73f 458e a4e1 06fb ccbf
00000730: af51 7e52 ed5b c33f bb0a 81a2 3065 d23f
00000740: 816c 2f12 3238 c13f 38ca f602 6216 d53f
00000750: 5d89 2ea2 1ec9 d23f f5e4 b077 9f51 b73f
00000760: 6943 49a5 5491 c1bf 7634 6bc6 9276 afbf
00000770: bfb4 8b15 5708 b73f b026 2e44 0632 bb3f
00000780: 1f8a c985 1b6a c03f ad8e abee 644b d43f
00000790: 2923 30b7 d772 d3bf d93b bf27 ee89 95bf
000007a0: e0fd b5c4 01bf b13f 3ceb 6afe 4a22 cd3f
000007b0: c1b1 805f e604 c23f d569 0880 b19f b33f
000007c0: 84b2 3f4f 0948 d3bf 4238 9787 a8da c3bf
000007d0: ddcd 4c55 7fca d33f cc03 b542 e299 ba3f
000007e0: a578 0584 c63d d03f 899e 5d62 aa26 c0bf
000007f0: 2af4 bff3 8ff3 a2bf a120 d4db b7d7 d2bf
-0.22679391980283561 -0.181525012178401 -0.10942070664797665 -0.21522504032112927 -0.021434141727315476 -0.20021177924463238 0.11145386268074896 0.0997972174365777
0.03254971571498873 0.16148806316973063 0.05088142767589035 0.08663679440564219 -0.25137495529181514 0.07005867145890401 -0.14074067921616557 0.008788085090342996
-0.17861442936040423 0.12693964022609228 0.2239812764801854 0.19593488022221697 0.06703279469432968 -0.12892273364232007 0.20307521325388336 -0.22051529853710883
-0.14423593042763327 -0.1411453355125845 -0.09367448298230285 0.045061432078016835 -0.1711836315496483 -0.17410316213305427 -0.10807673877398363 0.1379304676424697
-0.1629997835810271 -0.20268791185063778 -0.1958658271166862 -0.11120542489384906 -0.05937795869876767 -0.2240335968769585 -0.10580484386397997 0.004347477885459341
0.13755811851413122 0.22558383850723027 0.20737448039918954 -0.1913344075423584 0.16939229508385695 0.012597527381546491 -0.3350373149819391 -0.10718844726253796
-0.2004096792109171 0.13313849592585034 0.1907322323184404 -0.3263953033234734 -0.032162562189010584 0.36885932856480375 0.08190368223729631 0.11054117264745987
0.013859412530264523 0.1210734733712644 0.2936349235140931 -0.1222038791458952 0.16037454668968396 0.016106791949607922 -0.16713101274761272 -0.10016637649792051
-0.16925144799695543 -0.18717464306189732 0.005524670290986867 -0.1619499912539572 0.1204406625282937 0.1010673820444967 0.14415754512386222 0.20085125791156497
-0.2519499792141604 0.037723024000110676 0.1954511684798091 0.2616937394041449 0.05888797243285625 0.23162766837267856 0.1033079476105866 -0.06352306085462722
-0.19475714623421517 -0.19473640212825719 -0.20397562246065182 0.012792646813689737 0.19177740662869594 -0.1972162385972749 0.08992068366545927 -0.1994302991954549
-0.15018361062972416 -0.07706275627911943 -0.36436597483734845 0.1699856964682828 -0.07294252712505099 0.471581577471131 -0.12880483973339021 0.013916190379068346
-0.08885565378033507 0.12511787076391317 -0.013903843745923022 -0.13540812231900998 0.04487273402393203 0.0026777494572357797 0.13132019620460933 -0.035655924595599686
0.04738927332958154 -0.1101932859882501 -0.32799679275897825 -0.07526672647919112 0.048266918317098666 -0.1438558547357971 0.12064990436610225 0.17987648115003282
-0.19982204073227605 -0.26909557351881763 -0.10654297298251722 -0.29785473921389577 0.1612666398568423 0.17463496725201075 0.0075121533766817515 0.27577770630070275
0.06260741957688218 -0.22759868906844732 -0.22068031477362926 -0.08037962799082295 -0.23612816286937457 -0.11743180547638792 0.059267116522028415 0.000913418039902621
-0.03448398024659273 0.01996626149977442 0.4095206070754293 0.1591798774704672 0.1672045521870098 0.0630800293966308 -0.28982433412326536 0.006053079435286581
-0.06453925155287998 -0.017282240608329242 -0.4590536429214114 -0.040005440203179705 -0.2177429786932773 0.0027685582774457434 0.009978102651017675 0.07354750353182556
-0.07755055691231975 -0.03301288954955309 0.055449937644019155 -0.21889855744156825 0.1111531919165947 0.2184540287152293 -0.2428951243475291 0.34999657699252085
0.1429497477247439 0.352496957893358 0.2918407313287168 -0.3131887702854281 0.1570216809937782 0.04044958794651502 -0.10145211521436492 -0.07983017487239415
-0.18005445664602562 0.019339732803274813 0.06352056739264755 0.11605260907777287 -0.190181141542098 -0.21774430374437456 0.10793783152488687 -0.04724163633557789
-0.00046150803687627917 -0.05857933434115525 -0.05256719965328139 0.24853688442744293 -0.33819127735166077 0.20615324987161412 0.06318395861978215 0.09715356778737011
-0.17917238854439907 0.11148282174808459 0.30614132992848747 -0.06454994846199315 0.2542973518376545 -0.0302012624483504 0.21332528416568614 0.20761874618980275
0.07355914176861732 -0.010080149007723896 -0.02679528812367004 0.02996924451228883 -0.3218927103281097 0.08374986515542401 0.3179544749549032 -0.3286829746195387
-0.19330155216779352 -0.09908074934970558 0.19658198401290408 0.24079262183610067 -0.0447283264515319 0.10918756202907692 -0.11455340558198786 0.21782024818382473
-0.2316810685972118 0.15148328532893604 0.19945089110121708 0.17302540846821296 0.3221365382532584 -0.0045499485747260105 0.23588701112201177 -0.2427509815816465
0.20002833274851411 -0.22038128107668303 -0.10694363008085139 -0.2686217554565275 0.3628164218441375 0.20526075039626612 -0.016984862524713113 -0.3021705150133597
-0.10390099393730681 0.124982531247574 0.21746928032311838 -0.033896040039179766 -0.13760135547443175 -0.22080276722538503 0.08728068305064053 0.12182290179483796
0.13562524993468209 0.020617271734179342 -0.027377163830517623 0.03955125926663179 0.18552428080946023 -0.2264107324382271 0.15124289062499716 0.2874261462167557
0.13452745330764418 0.3294911412187136 0.2935253700071792 0.09108921692031287 -0.13724763937582488 -0.06145151779274098 0.08997101093310088 0.10623206295545162
0.12823814423161736 0.31710170085555484 -0.30388443841416063 -0.021033974815335064 0.06932078411590892 0.22760903761612805 0.14077453292101264 0.07665547729303708
-0.30127175082342483 -0.15511042233123545 0.3092344601638766 0.10391058090773625 0.2537704743643963 -0.12617997935307226 -0.03701448297940886 -0.2944163939250846

bias f8 [30]
00000000: e499 e39e d0ea b7bf 25fe 1a2f fff0 ccbf
00000010: 169a d99b ee16 a4bf 3dab 652b d255 b1bf
00000020: 00c4 fffa 835a be3f 19aa b424 2d83 99bf
00000030: e8ad c9eb 297d b0bf 0740 bee4 89b0 c7bf
00000040: 810c a396 4bc2 b5bf cea5 7cd8 74c5 cbbf
00000050: e865 9d10 05af c23f 1e2c a680 2c01 bd3f
00000060: 4772 6cdb a989 bb3f 6d82 89d8 dfd4 883f
00000070: eafe f63a c04a c5bf 9be5 f32f ee76 943f
00000080: c140 5707 0ce5 90bf b83a a599 0481 bb3f
00000090: 891c b3fd 4307 ad3f 6c41 e0d5 2a5c c93f
000000a0: 129f 8575 63e1 b83f dd11 f9e9 ea8c bbbf
000000b0: 1f93 e20d 13ff cabf 440c 486d fd63 d7bf
000000c0: 733a b9be 552e bd3f 2b19 9b3e 8aef b2bf
000000d0: 4811 a7e1 6399 c63f 5dd4 7763 9425 b53f
000000e0: fb92 111b a461 923f 624a f665 99f1 cfbf
-0.093426741400982 -0.22610463905401548 -0.03923745777574454 -0.06771577414990033 0.11856865766436897 -0.02491446053060473 -0.06440984732187582 -0.1850750319395049
-0.08499596049937176 -0.21696339197778375 0.14596617995520877 0.11329916134688786 0.10756932837507192 0.01212477569168976 -0.16634371642248108 0.019984933544923682
-0.0164987449150551 0.10743740798100532 0.05669605705184561 0.1981252235714338 0.0971891557616085 -0.10761898243169506 -0.21090925386411016 -0.3654779021455321
0.11398826509796738 -0.0739675906034775 0.1765560962504742 0.08260466984195731 0.017950596000804158 -0.2495605228292162

weight f8 [30, 30]
00000000: a594 40b7 2248 94bf 95a0 fde6 94bd aa3f
00000010: 5f8e cb95 98aa adbf cb95 5d83 f5c6 823f
00000020: 79cd 94ab a9c8 b63f 5163 a064 ef31 87bf
00000030: 3fef d7cb dffb acbf b47a 908c 78cb c63f
00000040: 935b 877a 01c8 bc3f 7057 ce81 3c43 c73f
00000050: ec55 7875 d750 85bf 5d51 2532 913f 8b3f
00000060: e1b4 cf25 f301 4f3f 5ed9 fdfb a49b 943f
00000070: e26d be32 d9e8 23bf 36d1 eb96 8ac4 babf
00000080: 850b daaf fe3c acbf 88bc 2894 2c60 b83f
00000090: 2eaf 9a61 48ea a9bf 9be6 4d9e d58b 97bf
000000a0: 3c94 7996 2847 adbf 0e7f f257 4daa 93bf
000000b0: 4270 932d 5c90 a0bf 91fe c633 b368 bbbf
000000c0: 4ce8 e675 31cb d03f d640 09cb 9383 bebf
000000d0: 41e0 10d6 1c41 a53f 77f5 684e a492 93bf
000000e0: d2a2 e9b4 3533 c6bf 2384 0839 8a11 bebf
000000f0: b9b1 9012 3d9c b9bf dece 0116 bfb5 853f
00000100: ac12 ed41 71aa afbf 64d4 fbfe b074 a83f
00000110: 2e97 d266 fb5b c63f 7889 2bb0 53b7 c4bf
00000120: a69e 7466 2095 b53f 3031 fa7f 4b59 c4bf
00000130: 7789 9985 c593 a6bf 28b0 b6ee d937 d33f
00000140: 2e5d 31ab 40dc c6bf 2b1a d464 7fb3 b43f
00000150: dbae a6e7 52a0 913f aec5 1d1e d351 c63f
00000160: 671f 4eae f515 b1bf 1c72 49ac 938f cc3f
00000170: 5aab dce1 ea97 b9bf 9fdd 3992 2783 babf
00000180: df36 7542 b4ad d13f 1ca1 0705 143d b33f
00000190: 15fa 9fae 4264 b4bf c7d0 bc0e 840e d0bf
000001a0: ee5d 73fc d6a0 c0bf 7fc9 e5f7 a846 d3bf
000001b0: dee0 6b62 c548 c43f 8f39 22eb 5f7a babf
000001c0: ca39 fe44 68f8 c13f 1f7c 8387 1996 a6bf
000001d0: 4f65 b9ed d3d9 a3bf c072 073c a1eb b3bf
000001e0: 35fc d34c b14f be3f a9ce 3c97 df14 a23f
000001f0: 4738 98ce a659 9b3f 4ee7 2f47 b301 9a3f
00000200: 7b14 ddbb e461 c23f e6a1 d93c fb5c a1bf
00000210: 4866 f319 dbed a1bf 3c29 b145 9514 b2bf
00000220: 61cd 8593 eee3 b8bf 5288 b6c6 57b5 a5bf
00000230: 43b3 7116 48f8 803f 6ac3 a368 dbdc 63bf
00000240: fa85 0967 fb30 963f 9af2 aa62 d4b1 a23f
00000250: 67b4 4eba 6ac9 bc3f 46ef 846b b932 c73f
00000260: 8e7d 89eb e6ad a4bf 4aad ea98 bb05 c1bf
00000270: b6b5 d9cd 5dfe bbbf a04c f56b 09a1 c4bf
00000280: 6d7f 46a8 9102 c53f 78a1 2216 d6dd c63f
00000290: a5a9 775a e70f 92bf d3cb dc66 7fe7 c43f
000002a0: a345 78e4 4c52 b1bf feab 2797 ee48 60bf
000002b0: 7f52 47f0 e8b4 bc3f 9bd8 8ed9 e4cd babf
000002c0: 1205 dd15 660a a33f 3e78 34cc 6235 aabf
000002d0: d574 0b8b 8fa3 9bbf a985 0deb c742 bc3f
000002e0: 24d3 1a74 2e64 b0bf 466f c5d6 614e b93f
000002f0: 1f69 dcbb 861f 803f ea99 93a4 42d7 bcbf
00000300: 0943 98d5 fb0e 7ebf fb1d b928 a287 92bf
00000310: 9092 4321 bea6 b4bf 379e a422 caee ba3f
00000320: af6d eb08 d6ff b5bf 3af4 4866 31ea bb3f
00000330: 5924 96e8 28e1 b3bf 30db 265b 3221 96bf
00000340: 77df 4e16 98f5 b03f 5058 a62d e457 afbf
00000350: 55e0 3921 e2a6 b4bf 3d23 431b b9c2 a9bf
00000360: f191 5fe9 4659 b13f 3a64 3a90 5ab6 b8bf
00000370: 7a9b 1a93 65f5 b6bf 4933 40cc bf8d b73f
00000380: 618b d5fa f522 9c3f a171 1a4b f53e 9abf
00000390: 532b 3718 b539 be3f 1253 42f5 69c2 b1bf
000003a0: 0b59 62b2 ca56 933f 459f e88b a9a4 94bf
000003b0: 2daa a817 695f c0bf ea91 c34e d295 b4bf
000003c0: fdb6 5aed 51e2 b73f 6cc0 a4c3 6428 ab3f
000003d0: 2c2d bbc9 d1b4 bbbf 7d21 557c f094 68bf
000003e0: c72c 6e2b 6dec c03f f335 f945 ebb5 d4bf
000003f0: 5284 1ad6 aa4a 61bf 572d 7f82 788c c03f
00000400: 68bf efe7 693d b2bf 9e17 0620 c322 a8bf
00000410: e71f c4b2 123c b23f 78c2 d200 6c40 ce3f
00000420: e985 3f6d 81bf 97bf 1504 e694 85f8 d0bf
00000430: f7fd d8d0 a974 abbf 7483 ad7c 636e 9bbf
00000440: a537 26ca b513 973f 5fdd d81c d792 c33f
00000450: 7d1e 6f66 3781 943f fecc ea07 b6c5 603f
00000460: 2bfa d2fb b032 cfbf f11f 74b8 20e1 a83f
00000470: 44b3 f822 1eb2 9d3f ff44 7737 f23e c33f
00000480: 198a 3a21 7299 a63f 158b 4a2c 39f9 c1bf
00000490: 653e c539 0f3b c3bf 5aa7 ea42 d483 ab3f
000004a0: 9224 a4e1 fa70 b33f 3f12 0991 5752 b93f
000004b0: 72ea aae4 bd3f b6bf 96a3 25ec c186 b3bf
000004c0: 0cd4 893f 212d 923f 596a 8dda 8e3a b83f
000004d0: 6d5e d318 b329 a53f 4a6b 7235 849e b43f
000004e0: 44c9 458b 0e66 b53f 7513 ddde 9634 ae3f
000004f0: de37 fc72 da3d bbbf 11fa bdbe 642f a6bf
00000500: 8891 51b1 94c2 b8bf 73e2 1d2c 7940 b6bf
00000510: 10e2 b122 c157 b43f 2bf9 bf37 1f5e cdbf
00000520: 836b 4b82 0aff b03f bdc7 d8f6 70a8 bbbf
00000530: 3e57 fdda fd51 8cbf 42e6 0c97 6162 c13f
00000540: d475 806d c8bb 963f b1b0 9b22 11c0 b93f
00000550: 1192 f6be 1020 b4bf 1a9a 0c45 5e85 c93f
00000560: 7e0b 3908 4658 b3bf 02fb 08a9 1d36 ad3f
00000570: 2a74 ee2f fc19 b0bf e27f 12f4 9957 ccbf
00000580: 34ba f93b ce92 c83f 7e95 871e deb6 bebf
00000590: 4e49 75fb 8b27 c5bf 9309 1a18 d185 993f
000005a0: dd82 388c 8450 98bf 6e46 388c a22b 8b3f
000005b0: 7b8e 6a1f a166 b6bf 7da1 296a 8d69 b8bf
000005c0: 314a eb90 0c27 bcbf 8942 b2dc df77 c0bf
000005d0: fcb3 f19d f105 b23f 62b1 07df 537d abbf
000005e0: 1d1f 3c0e 2667 bd3f ee2a e2b7 5003 b83f
000005f0: 51ac be21 03b8 bdbf 360b 250d acbc bcbf
00000600: bd0c ee61 eb1c b7bf a9ec 47ee 233f b8bf
00000610: 32d5 73f1 9030 bc3f 1e95 1945 1378 8cbf
00000620: e51a 4c38 b2ab b73f 0023 a5d2 8c9f 403f
00000630: 4765 f61c c428 a83f b458 3f83 210b b9bf
00000640: 982b a3b8 de9d bebf e768 3bc7 734c bf3f
00000650: 867f f76e a880 bbbf 9743 a89d 267d c03f
00000660: b0e1 b1d1 f9a1 babf f8f7 8aa8 6011 bc3f
00000670: 81c5 f882 5c0f 8cbf dfe4 2678 2c76 903f
00000680: 6344 e181 4817 99bf 6b3d 6452 f90e bf3f
00000690: c4f8 687d 11fb 58bf 49fb 5f10 9bc9 c93f
000006a0: 51cf 1ab7 6c74 93bf 0c2e 7d59 f94f ba3f
000006b0: 65bf d2c0 a409 b5bf 3c86 eb9c 106c c63f
000006c0: 171a c5c0 b4bb 8f3f e459 5f00 959f 76bf
000006d0: c4d8 72a6 6f55 c0bf 6d4a dff2 e3b6 cc3f
000006e0: 87c9 1c2d fb07 a4bf 842e cf6d 2a50 c0bf
000006f0: 6864 6544 fe51 b1bf 2f9f a452 76aa d33f
00000700: 7767 29bb 325a b8bf 3b48 d9a7 df24 a23f
00000710: f28b c696 a8a6 b9bf a1a2 72cc 6cea a5bf
00000720: f9b0 48c6 bfbb b33f dde9 90dc 1660 b6bf
00000730: 455a 4f8f 4dc3 b43f 2e0e 08d0 d4b6 babf
00000740: a23d 8036 c707 b83f b9b5 bdba 9482 b93f
00000750: d7c6 f80a 17eb cfbf 7b5e 5edd fd30 c5bf
00000760: b6a2 a2c6 ac25 d63f 47ab 251d cda0 74bf
00000770: b2af 63c3 3c53 c6bf 927f 3261 23ea a8bf
00000780: 1b2a 745d 962b bebf 3f08 c39e b12b bdbf
00000790: b32f e478 6eb5 7bbf b5c3 5426 d2dc 963f
000007a0: d6bc bb0a 9cb0 b53f 8026 3d92 fb7a babf
000007b0: b42a 0ead 87e7 8e3f 5180 78b4 c782 ffbe
000007c0: 7bb9 4cf5 8146 9fbf 2407 45f5 318e b3bf
000007d0: 643c 24ce 1cab 94bf 0a49 f1cb ffcf bf3f
000007e0: 8363 4488 4b9c babf 529f f63b 7a28 a73f
000007f0: 9b09 4c20 e6a0 a4bf ea4e 1379 9c59 a13f
-0.019806425509291476 0.05222764320097998 -0.057942169461764996 0.009168546744784309 0.08899937094684231 -0.011325712450387522 -0.056609147675742204 0.17808443892950765
0.11242684594559042 0.1817393907373872 -0.01040809943428208 0.01330483850748781 0.0009462773556358184 0.020124986534449156 -0.00015189792008816957 -0.10456148323630007
-0.05515285393359818 0.09521750085035496 -0.050615560450152905 -0.02299436358177918 -0.05718352162220028 -0.019204338543771952 -0.03235137993189642 -0.10706634534926197
0.26240192903390347 -0.11919521052300594 0.04151239503011129 -0.01911408165527947 -0.17343779882073435 -0.1174551381341336 -0.10004026129963152 0.0106005600539229
-0.06184724740754652 0.047765284658375845 0.17468206902156552 -0.1618446932034876 0.08430674077373598 -0.15897506474392165 -0.04409615760666246 0.30028389274480327
-0.17859657629990394 0.08086391650804418 0.0172131494415869 0.17437209101221413 -0.06674132829186662 0.2231316176647774 -0.09997432722290736 -0.10356375999423627
0.2762270592692015 0.07515072939680006 -0.0796548534708353 -0.25088597716536437 -0.12990844084445946 -0.30118774613142557 0.1584707956860773 -0.10342978945320723
0.14039328926851474 -0.044113920013608025 -0.03877126957804455 -0.0778141757541091 0.11840351224599106 0.035315501414882995 0.026709181174787735 0.02539711114875525
0.14361247227694549 -0.033912516763681386 -0.035017821233577495 -0.070626573099763 -0.09722796537044111 -0.04239916134544387 0.00828605955595097 -0.002424648792946395
0.021671226657764088 0.03651298241081698 0.11244837807198992 0.18123548269238138 -0.040389267208179466 -0.13298745123516148 -0.10935007358212698 -0.16116445323368556
0.1641408988625658 0.17864490586113013 -0.017638792893117778 0.16331474802572518 -0.06766205385090145 -0.0019879016847332833 0.11213546625305958 -0.10470419227098875
0.037188711327425975 -0.05118855231033635 -0.02699112211381734 0.11039399612993485 -0.06402864775266132 0.09885226720274173 0.007872631652891258 -0.11265961187346077
-0.0073385083465076295 -0.018095525489369973 -0.0806692916117504 0.10520614000108074 -0.08593499868168551 0.10904225108329593 -0.07765441587811618 -0.021611010373557338
0.06624746842032701 -0.06121743256805756 -0.08067143737014366 -0.05031374414244858 0.06776850888815723 -0.09653249760812424 -0.08968195763973866 0.09200667130080577
0.027477115091993357 -0.02563079138654845 0.11806804505537842 -0.06937277066965589 0.018885771882730256 -0.02015938679156128 -0.12791169791428683 -0.0804110948843754
0.09329711956771898 0.0530425537893969 -0.10822783637120342 -0.0030007073388881853 0.13221516247390339 -0.3236034568152199 -0.002110799469690985 0.12928682681954726
-0.07124959862244185 -0.047140214594988836 0.07122914184958483 0.23634099998664104 -0.0231914732866069 -0.2651685670935547 -0.05362444567117202 -0.026788286671379294
0.022536125624860088 0.1529187098364941 0.020024171473578257 0.0020474009791883177 -0.24373447700595938 0.048592588917074304 0.028999777683725428 0.15035846432014208
0.044139448696359725 -0.1404181925073195 -0.1502398521501959 0.05374015156605934 0.07594268807237572 0.09891269007591406 -0.08691012222963382 -0.07627498641308103
0.01775028181369369 0.09464352451088 0.041333767681575796 0.08054376892907303 0.0835885133763315 0.05899497480871833 -0.10641255671745806 -0.04333033398051012
-0.09671906785076179 -0.086921284933746 0.07946402642290473 -0.2294348737922943 0.06639161759396299 -0.10803895975621365 -0.013828261609585387 0.13581485629565476
0.022200709994754167 0.10058695883680248 -0.07861427938639333 0.19938257571739443 -0.07556569767716145 0.05705349625030999 -0.06289650125695859 -0.22142338197318084
0.19198015144816483 -0.11997783894874733 -0.1652693727324483 0.02492453298192172 -0.02374465089644927 0.013266820816201643 -0.08750350014684642 -0.09536060182438706
-0.10997084177078233 -0.1286582782381809 0.07040319543894208 -0.05369054887327952 0.1148551735642482 0.09380058755247564 -0.11608905385826175 -0.11225390740314087
-0.09028502598634965 -0.09471344535261274 0.11011606116138209 -0.013900900408041535 0.09246362566419071 0.000507301102779939 0.04718602040811475 -0.09782609419139271
-0.11959640510319358 0.12226031889023013 -0.10743191441679131 0.1288193006335205 -0.10403405541899846 0.1096401607019003 -0.013701174494687109 0.016075796922199067
-0.024502880980723406 0.12132223378670452 -0.0015247031020773497 0.20146501826817545 -0.018998812366319232 0.10278280672826429 -0.0821783991584631 0.17517287885770993
0.015494739659186725 -0.005523283039983149 -0.12760730388044383 0.22433137282367302 -0.039123391396418454 -0.12744646417410277 -0.0676573674185349 0.30727918692217576
-0.095126314824851 0.03543757366118468 -0.10019925766987095 -0.04280414577198611 0.0770835742084194 -0.08740370640672475 0.08110508679178803 -0.1043522842301676
0.09386868553723685 0.09964875754459158 -0.24936187778216976 -0.16555760678305717 0.34604949377039007 -0.005036164499282964 -0.1744152025270274 -0.048661332716846264
-0.11785259038530464 -0.1139479649164352 -0.00676482346740308 0.022326739873452534 0.08472609769863779 -0.10343906708035355 0.015090045899133521 -3.0051097637096288e-05
-0.03054240283670982 -0.07638847578075719 -0.02018399246395254 0.1242675660044236 -0.10394737316927487 0.045230693645236145 -0.04029006141901733 0.03388680437060805

bias f8 [30]
00000000: 9ffd 3807 60f9 a63f f10f 30f4 cce6 b43f
00000010: b006 86c4 63fa c6bf fd35 a2aa 5d74 73bf
00000020: f299 6f00 e7db bc3f 1087 ef0a 6066 b83f
00000030: b82a 304e a610 bdbf 53fd 6713 3e26 8abf
00000040: 1d64 b8e2 174b c1bf 06aa 4963 be44 a33f
00000050: 66cc 944f 9eab c53f 2dc4 7700 fd07 ca3f
00000060: edd5 8f27 b5a6 ae3f 96b4 1c41 de41 acbf
00000070: 0ea5 d0ec 6d98 d0bf d4ef 989d 152c babf
00000080: d0b4 075d 3483 b53f e18c 6670 1900 71bf
00000090: b39a 81b9 9f5a b93f fce5 9b65 b96b b53f
000000a0: 7b92 1d3c 9b17 a53f b5d9 5780 c140 cc3f
000000b0: c18f 2061 450d c3bf b02e d155 1656 c03f
000000c0: f209 8d1c ef45 bebf ced0 bbde 1cb5 b7bf
000000d0: b0d4 58e5 337c a1bf 21e6 34dc 7565 933f
000000e0: 6c97 0719 d251 bfbf 2b2b b515 f4e5 aabf
0.044871331102054095 0.08164673768629861 -0.17951628776431994 -0.0047496470307470924 0.11273044357913145 0.09531212107642895 -0.11353530320063043 -0.012768254248838906
-0.135104165747891 0.0376338478279941 0.1692998779850285 0.203368783214985 0.059865628318146104 -0.05519003434015095 -0.25930355192629484 -0.10223517510979657
0.08403327246897452 -0.004150485392901277 0.09903906134568778 0.0836749909466547 0.04119572743255603 0.22072619215732706 -0.14884249918497797 0.12762717428483006
-0.11825460860294593 -0.09260731160958643 -0.03415071653982105 0.018941728177401033 -0.12234223471713584 -0.05253565564142656

weight f8 [30, 30]
00000000: bb67 daf3 ea71 c4bf cb8d ec31 8dbb c5bf
00000010: 3e69 8857 8a46 85bf 0f98 ce4a 3b93 b3bf
00000020: 5708 1e71 8a57 c73f 60cb 22bb c28d afbf
00000030: b683 80e3 51ae 9fbf 339e 6e97 8db3 c0bf
00000040: 8c3b e51e cc72 483f f533 7cc1 278e a33f
00000050: 81bd d2f7 e28e 963f 1f37 3819 8919 b1bf
00000060: d974 ee6c e495 c0bf 1794 9ee0 fdc0 08bf
00000070: c0b8 7bf1 c7e7 7cbf 00af 5892 83d3 b43f
00000080: 2340 3905 b93a bf3f c756 5bda 044c 803f
00000090: 7e76 8f83 02c3 a8bf 8166 7560 ac4e 663f
000000a0: 4863 61af 853a b93f ab76 cf34 c4f5 b93f
000000b0: 927f c624 551b c4bf 5e57 ef40 dfa8 af3f
000000c0: 5554 dee6 417e a63f 04b9 41b9 d639 a2bf
000000d0: 66fc 4150 6338 b0bf 56fe b92e 6e12 70bf
000000e0: af9f 2122 6846 a8bf df74 10ff f61e be3f
000000f0: ed93 f725 c974 b13f 36ec 9f36 eb69 92bf
00000100: 7053 a763 de0a bf3f 61d6 04c2 6825 84bf
00000110: df67 065f c80c b33f 013d ee10 ed05 afbf
00000120: a34e 863d d5f9 babf 2a38 ef8c 6187 a43f
00000130: fc41 f288 06f5 be3f 7136 29b8 ab07 a5bf
00000140: 1e3e 68ea 2395 b3bf 8376 a137 9683 b93f
00000150: 6289 6072 3453 7a3f 14c6 af5b 5b0f a1bf
00000160: 3fb6 0319 15b3 babf 569e 1387 6092 b13f
00000170: 3f5a 25ac 67e4 4d3f f727 54b3 6369 a73f
00000180: 0c26 41f3 6c81 bebf 16a3 602f 5bf6 a2bf
00000190: 458e 1566 d673 ad3f d0a6 5544 5c0d a13f
000001a0: 1219 d311 a170 9d3f 1983 35b3 0e5b af3f
000001b0: 4762 efe7 4553 b7bf 4d1d b56a 71f5 afbf
000001c0: 15e0 2137 6226 94bf c8e5 5fde 4584 babf
000001d0: 6a4b 6c93 dbe8 bfbf 56c0 3d76 c29d b43f
000001e0: 8daa 120c d0fa b03f f9a2 f238 7851 c23f
000001f0: c729 d071 a9ba a23f f13b d687 698b b5bf
00000200: 77e6 868f 2cf9 c0bf f585 6f5d 5255 5fbf
00000210: 00f0 2f56 e5ee b6bf 2631 b9af 2326 c03f
00000220: 8ab5 b61a 8849 b3bf 7e6b ca65 97d0 87bf
00000230: 9a06 c39b 085e c7bf bcb6 d0bf e253 ab3f
00000240: 2d2d 526a 1e79 c23f a119 6877 f93d 9bbf
00000250: 98a7 80e8 5d2f c3bf fef3 bef4 0373 bf3f
00000260: b5db 998b 45b5 b13f 35b5 3d2a d315 b73f
00000270: aa5b f990 9a97 babf bcf3 9fa7 1545 c4bf
00000280: bda3 8468 5e81 bb3f 9ca4 d4a5 e253 a2bf
00000290: 07f1 e257 2445 b53f 864f a361 7503 bc3f
000002a0: c3a0 5193 f8ee 8b3f 0853 0d1f 14c3 aebf
000002b0: 2e06 40e8 856d afbf 33f0 2bdf c34a c23f
000002c0: 2bfe 88d1 ebed 9e3f d96f da50 252e c03f
000002d0: aab0 c8fb 43be 97bf 50a3 b8e7 8827 9dbf
000002e0: 0972 ab10 0791 a33f 14eb 9d74 4c59 a23f
000002f0: 88dc 1fea 1663 a6bf 45a9 2409 419d b03f
00000300: 8d36 494f 627a 913f c3fe 2cd1 3d2f ba3f
00000310: 27d6 35ba 76dc 8cbf b5b0 3d04 74d4 b83f
00000320: 8c5d 1413 39c3 a93f 460f 8fc1 8610 b83f
00000330: fed9 03bc ca56 9dbf 6d17 0754 bafb b33f
00000340: 02c3 35e3 aaff a83f a53f e3ec e364 bc3f
00000350: dea9 f35c bd61 aa3f 02ed ba57 1d96 a2bf
00000360: 4043 f5c0 a0e5 983f 9a0c a864 b7d4 9abf
00000370: 8185 62ab a286 b03f e7ca 4f84 8ab9 c03f
00000380: 4168 a303 2dc4 a03f 0b38 bd32 0e50 bfbf
00000390: c882 bc9c e564 b53f 8bfd c337 57f6 bbbf
000003a0: c119 2186 1569 713f 6d52 4292 8728 aebf
000003b0: ef75 2f13 0c6b 93bf 8adf 2e4a e3d0 b8bf
000003c0: f6bb bfc1 93c1 b5bf 6c48 a9fe f7b9 b33f
000003d0: 4aae bd9f 39a2 60bf c81f 5978 2477 b63f
000003e0: b9da ab08 643c a83f 62ed 655f bba1 bf3f
000003f0: c186 b20b 0038 523f d5f7 f0f0 6434 b83f
00000400: 5c48 f26f 4c63 a93f 88fd 2afb 6c11 993f
00000410: b2c5 1d25 9c42 90bf cd7c 8db3 e2f5 a5bf
00000420: 96d0 cf3f ef63 b63f f2ca c19a 5b65 bebf
00000430: 68e0 12c1 577d ab3f ec52 74e4 ef8b b6bf
00000440: 1270 6743 7896 c0bf 37e5 084a a700 afbf
00000450: fc08 089b 6e7b 93bf 8cec 3d82 b2f7 b33f
00000460: 8162 7184 dce3 a63f 0f56 5692 5937 9dbf
00000470: 5eb7 350b 9ded a13f 35ed 2fa0 7584 b83f
00000480: 845d 89f5 5950 4ebf 3eb6 636f e18a 7b3f
00000490: 1f2a cc29 3512 a5bf ea32 80e3 d824 a2bf
000004a0: f7ce 8423 a7a4 a93f b457 75c2 02a3 abbf
000004b0: 24aa 8ad6 369d 94bf cbf8 805c 861d cfbf
000004c0: fcd5 dbec d66c cebf 02cc b700 b0e1 a9bf
000004d0: 6dbb 7afa 5f4e cf3f 8bfd 23b5 5d05 c83f
000004e0: 92a6 53b2 3172 adbf 7a2d ea06 c3c0 ccbf
000004f0: 6bd2 1108 36fd 863f bb26 6469 01fa b7bf
00000500: f075 2a3a 2f49 cb3f 514d 881b b300 d5bf
00000510: ca2e 88af 70f3 c0bf 5072 fecd 1d68 713f
00000520: 96c3 857d 3492 c33f 9880 3453 f3c9 a3bf
00000530: a102 ee18 039c 5f3f e192 0ec1 a9a8 aabf
00000540: 52e8 1f29 c896 d03f c66b 5fdf 0ae8 94bf
00000550: 3125 4992 a20c bebf d8e5 53b3 d06e d33f
00000560: 0172 013b f675 b9bf 4b7f 17c0 c633 bc3f
00000570: 4d93 11e9 abab bc3f a5a7 b268 09ea af3f
00000580: 09f7 6961 d6b0 a9bf 47f7 351d b1a2 a8bf
00000590: 4c33 a957 fe8d d03f 8c2c 92fe c240 a4bf
000005a0: bfcc 0ab2 ab6b b63f 46ab 98fc 39cd c43f
000005b0: f39c c894 5edb aabf f617 27f7 e3a8 b13f
000005c0: 208b 7ecf 8020 a6bf 4226 7d6e 642a 753f
000005d0: 5ce7 5240 218b b03f 8fb1 490c 022b ab3f
000005e0: a628 c94a 0d94 c0bf 8a4b 8178 1ba9 a93f
000005f0: 8603 36c7 d73a c3bf cf2b 555e 48b8 a0bf
00000600: 3b63 ca9f 61cf 85bf 17b8 3c10 7b97 a13f
00000610: 9f0e 5d11 ec31 c4bf b54c 2c85 30f8 b8bf
00000620: 1000 8448 2514 99bf c7d9 f7b3 285d c03f
00000630: af92 7aff cb18 a2bf f809 917f 5020 b3bf
00000640: 7258 d48d 59b6 b53f a6be e006 313b ad3f
00000650: aaf9 dc3d 7e75 b43f 33aa e3b2 c2a7 b63f
00000660: 13a1 583b 0389 853f ceae 801d 652d 8cbf
00000670: 6566 a69c 576a bc3f d8fa 0752 09de c7bf
00000680: d142 2989 863f 89bf f353 9aa5 5b08 afbf
00000690: 9992 905a 23bb b6bf 8a09 5eaa abb0 c13f
000006a0: 88dc 0fae 5bb4 b03f bcd0 5a1c c464 bcbf
000006b0: 3246 4dd2 e0d1 b7bf 2d26 910f a24c c0bf
000006c0: 831b 12f6 a8e1 bfbf 0b35 1ee7 61e0 c23f
000006d0: 56c4 5895 3ca8 b4bf a6a8 d140 549d bf3f
000006e0: 787a 18cf 992d b33f 5a99 ca88 04fb b83f
000006f0: 068d 0ea9 336c bb3f 757a 8754 fa13 b0bf
00000700: d14d c4a5 30c3 c0bf 43cb 1f29 61fe 8e3f
00000710: 5a8d 7af8 5ebe ba3f e298 4a97 a7df a43f
00000720: 5520 38ae 8068 a1bf 5d23 100c b76a 80bf
00000730: dfea a0b8 1148 c03f f349 92c7 38bb a5bf
00000740: 81e4 2ea5 db6e bc3f 099d 51fb 1ba5 c1bf
00000750: 981a d910 2bc7 b6bf cb83 fa38 17b1 aa3f
00000760: 75b2 3d22 59af c0bf 7abf d599 cfca 93bf
00000770: 99c9 2f68 51f9 aebf c069 3e86 1d8d ba3f
00000780: 2403 f0c8 b92e c03f 7ab8 5981 aaae b13f
00000790: b3e9 62cd fd87 a9bf 3795 fe10 2b78 b1bf
000007a0: 8f4e 0bcd 6276 b3bf 3b5f d342 62a0 b4bf
000007b0: 2ab6 ef99 6e12 bd3f 2edf cb35 a71b bc3f
000007c0: 9624 bb47 6901 a53f 0f6a cc69 594c 913f
000007d0: cad6 fe82 4290 bfbf 495e 79e9 c1c9 b9bf
000007e0: 7b3d 7d39 cf3d 93bf b3d5 b540 1581 a1bf
000007f0: 04d3 5517 3039 a43f 92d8 2de6 9cbf ae3f
-0.15972649485484944 -0.16978611886689374 -0.010388451381960647 -0.07646532608359301 0.1823590328531874 -0.06162842306493732 -0.030938415060635292 -0.13047952551026895
0.0007461067851098776 0.0381939338386487 0.02202944409935759 -0.06679589143479035 -0.12957434958381134 -4.721426746748957e-05 -0.007056981113903571 0.08135244677458431
0.12198978784113072 0.007957494653435216 -0.04836280685388504 0.0027230612501341627 0.09854922801731647 0.10140634812656894 -0.1570841245238595 0.061835266758562865
0.043932017738520436 -0.035597524751993986 -0.06336041173379811 -0.00392382659958875 -0.04741216103212708 0.117659985801271 0.0681882589047544 -0.01798217316534708
0.1212595933241809 -0.009836977406489202 0.07441379852244222 -0.06059208709404552 -0.10537464859072058 0.040095375493919796 0.12092629283348083 -0.04107414839800761
-0.07649445031005839 0.0996641050164389 0.006427006597763048 -0.03332028860303296 -0.10429508076386983 0.06863978669900325 0.0009122377598867539 0.04572593273231001
-0.11916237772779698 -0.03703579858149035 0.05752439495224996 0.033305056897757646 0.028749958718230557 0.06124158799753427 -0.09111439621427407 -0.06241945674497149
-0.019677672019014453 -0.10358082465236074 -0.12464687680430378 0.08053222071407737 0.06632709784268283 0.1431112554612566 0.03658036722488905 -0.08415851179437063
-0.13260418899681145 -0.0019124321313416213 -0.08958276132756282 0.12616392212147182 -0.07534075405302168 -0.011628325265794489 -0.18255717855031578 0.05337437240119189
0.1443212527413861 -0.026603601372721667 -0.14988302090324335 0.1228487465404697 0.06917223604419472 0.0901767709853701 -0.10387579001813543 -0.1583582943420917
0.10744276096069334 -0.035796244376180314 0.08308627267519252 0.10942777284372882 0.013639394756140516 -0.06008208159497569 -0.061382469750253285 0.14290665051510273
0.030204472221383376 0.12640825698770078 -0.02318674301402327 -0.028471125739233216 0.03821584776389748 0.035837544665772963 -0.0437247429653605 0.06489950631354187
0.01706842049525519 0.10228334767179618 -0.014092376287162157 0.09699177840747349 0.05031755788712208 0.09400217271382613 -0.028651397443320896 0.07805981208283948
0.048825588451000726 0.11091446431532732 0.051526944729477483 -0.03630153366017376 0.024313461091256316 -0.026202073591787035 0.06455437359047346 0.1306622644475148
0.03274670285618742 -0.12231529940365264 0.0835708148629336 -0.10922761069740809 0.004250606611157116 -0.05890296612156907 -0.018963040038093067 -0.09693737565146257
-0.08498500328253997 0.07705640761676741 -0.002030479952670726 0.08775546968638459 0.04733574491358667 0.12356158331924896 0.0011119842954844669 0.09454947359424122
0.04958571306737333 0.024480536298822325 -0.01587909676113037 -0.04289158288769954 0.08746238048462582 -0.11873409775015967 0.05369066459519517 -0.08807277038097155
-0.12959197322095456 -0.060551860606617706 -0.01902554341541761 0.07799831084951075 0.04470719448790295 -0.028531455570904692 0.03501597177351699 0.09577117119618068
-0.0009251059773970759 0.006724243741911771 -0.041154538490520524 -0.0354373719893369 0.0500843268258943 -0.05397804855117219 -0.02013097462137571 -0.24308852688586166
-0.2376965195214068 -0.05054998406185264 0.2445793126148276 0.18766375870471239 -0.0575118570503267 -0.22463262403139678 0.01122514927031056 -0.09365853140857443
0.2131709131253241 -0.32816770256723254 -0.13242920466324498 0.004249683784931138 0.15289932374028287 -0.03865013495146846 0.0019292860267513883 -0.052068047348518005
0.2592029954536247 -0.020416421779241543 -0.11738029548100283 0.3036386252639125 -0.09945620480124974 0.11016504468670722 0.11199449958946879 0.062332433729650284
-0.05017728747496448 -0.04811624032571032 0.2586665969909532 -0.0395565925365072 0.08758042427762101 0.16251301606947716 -0.05245490614134409 0.06898331436158842
-0.043216729477782545 0.005167381583143506 0.0646229536095268 0.05306249999998435 -0.12951818610810512 0.05011831136712093 -0.15023324229335006 -0.03265596534273351
-0.01064945477382794 0.034358831150129436 -0.15777350280597077 -0.09753707171721511 -0.02449091200924164 0.12784298694141524 -0.03534543508184151 -0.07471182932298592
0.08481368744500786 0.057092220391834744 0.07991780290919928 0.08849732272543846 0.010515237091639073 -0.01375845905575748 0.11099765371764077 -0.1864635134260968
-0.01232819658358278 -0.0606106414462956 -0.08879300080350062 0.1382040578719848 0.06525204658088246 -0.1109125680184801 -0.09304623731920783 -0.12733865509135125
-0.12453704841219175 0.14747260842379037 -0.08069208761368549 0.12349440176481838 0.07491456323666934 0.09758022632249688 0.10711977841724626 -0.06280483783437225
-0.13095672697146069 0.015133627955923884 0.10446733061194405 0.04076884958094397 -0.03400041701030491 -0.008016042762408021 0.1271993781573064 -0.04244401394057098
0.11106655867378558 -0.13785123607087993 -0.08897656594590797 0.05213234491862514 -0.13035120174335516 -0.019328349842396154 -0.06049589535531936 0.1037157490485816
0.12642595588115413 0.06907144220324027 -0.049865657159404185 -0.06823987164405741 -0.07602517610512848 -0.08057226306425218 0.11356250055515518 0.10979695380580942
0.04102639198897255 0.016892811853816577 -0.12329498003131359 -0.10073482465792795 -0.01879047191988324 -0.034187950276570865 0.039498808716336625 0.06005564031413359

bias f8 [30]
00000000: 1c57 185e cf4f 993f fe48 597c 8549 b43f
00000010: a1fe 4695 2d78 97bf b345 e8eb 210b 95bf
00000020: 62f1 2909 36b8 b0bf 95f8 4b17 2f51 a63f
00000030: 27a1 8890 15f2 8ebf 9a90 b9cd d2ea ab3f
00000040: 5f8c 613f de01 b1bf 7847 a3c1 591b b7bf
00000050: 8452 0806 1a46 bfbf 845f 403f 12d9 b3bf
00000060: fa53 734b 50ee b23f 689d c956 47b2 a93f
00000070: 0093 bd28 dd4f 9ebf 220d deeb 5218 a53f
00000080: d287 87be 7ab2 b3bf 32b1 e974 bf35 a73f
00000090: 1083 b295 03d5 c03f bb17 353a dfb9 c03f
000000a0: b8a0 4a90 5fbb 873f b91d 456e 89c9 883f
000000b0: 38f4 f66d b4b8 b7bf 84e1 c370 414e a83f
000000c0: c27d 9e4c 96df ba3f c7e5 cb95 ab09 9b3f
000000d0: 8cba ea01 a73d b2bf 7ec2 5161 e49a aebf
000000e0: 2bd1 e0fb a531 b53f 5877 2f43 33e1 843f
0.024718513601405964 0.07924684797152179 -0.022919380413212512 -0.020550279639854185 -0.06531083797194051 0.043588134378283495 -0.015110176537817722 0.054525935757540014
-0.06643475577725287 -0.09026108720288828 -0.12216341635969213 -0.07753099483704601 0.07394887773564554 0.05018828329485353 -0.02960153161201884 0.04120120171776366
-0.07694213058087421 0.04533193876418053 0.13150067147673683 0.13067236272962454 0.01158785494892843 0.012103151014016033 -0.09266212162670306 0.047472043051985074
0.10497416849692967 0.02640407659325719 -0.07125324055480514 -0.059775483016783135 0.08278882407541192 0.010195160377346177

weight f8 [1, 30]
00000000: 2650 155f c6f8 cd3f c5ba 404a 8a5b c5bf
00000010: c7c3 af70 bc36 d6bf bd42 f7da ed09 8a3f
00000020: c32d 6a63 b690 90bf 6bdf ef7a 9ac0 e83f
00000030: 8d1b 5629 78fa d4bf d5ed 7d7c 2a7b d0bf
00000040: 3949 ed2f 20c9 b73f 11fc ba82 6b7a b1bf
00000050: 8b73 8c86 65cf e2bf c907 2723 7aef b8bf
00000060: f7a7 74e9 7035 dd3f 2257 53f9 cd2b e33f
00000070: 56f5 0e41 21e1 b9bf abb8 705c 485c d6bf
00000080: 10e2 e1a4 6e55 babf 7348 aa3f ed28 c73f
00000090: a4a3 91c1 06f7 e33f 9c81 1421 ddfa ee3f
000000a0: 2878 e38d 8425 bf3f 4542 4f10 0a95 cc3f
000000b0: 72cc af5e b2ef bc3f d8d6 8242 1212 e1bf
000000c0: 0722 2b52 e02e dc3f 19f5 862f efb9 c03f
000000d0: bd7a 5fed 4b98 c03f b826 660a 812b afbf
000000e0: 0549 d2d8 6388 dbbf 25db bab0 5f79 c0bf
0.23415450709092162 -0.16685608506801067 -0.3470908260779279 0.01271425079804211 -0.016177034204287965 0.7735111619103753 -0.32778743778947544 -0.25751745374119867
0.09291268510904595 -0.06827423040066118 -0.5878169658568465 -0.09740413053717058 0.4563867835846617 0.5990972394599547 -0.10109145963993646 -0.3493824866044501
-0.1028660919709028 0.18093648537302762 0.6239045887606278 0.9681230207534557 0.12166622604442578 0.22329831882827214 0.11303248225867593 -0.5334559725804082
0.4403610994745865 0.13067426510489424 0.1296477231071175 -0.06087878467503799 -0.4301995866200204 -0.12870403413190803

bias f8 [1]
00000000: 06bc 6ee0 e695 cb3f
0.21551214178677486
